agent_2_actor_checkpoint.pth (torch_old, 291854 bytes, 6 tensors)

fc1.weight f4 [256, 24]
000000 9a c9 98 bd e6 bc b8 bd f3 04 91 3b a5 6f bc 3c
       -0.074603274 -0.090204045 0.004425639 0.023002455
000010 4c 8c d8 bd a4 c0 84 bc 75 db 88 bb 51 8f c9 bc
       -0.105736345 -0.01620514 -0.004176552 -0.024604471
000020 4d 84 25 bd b5 64 0f be 97 89 95 3c eb 8c 04 3e
       -0.040409375 -0.1400326 0.018254085 0.12944381
000030 ec 10 32 3e c6 15 88 3d 33 e4 b3 bb 1c 9d 6c 3d
       0.17389268 0.06644778 -0.00548985 0.05776702
000040 99 0a 26 be 6b 93 e5 bd 7c ad e0 bc 11 26 e0 3d
       -0.1621498 -0.11209758 -0.027426474 0.109447606
000050 0c 1b 59 3e 25 24 a4 3e eb ec fb 3b c9 27 3f 3d
       0.21201724 0.32058826 0.007688155 0.0466688
000060 a0 38 72 bd bf 68 c8 3c 00 76 52 bc 33 e7 82 3a
       -0.059136033 0.02446401 -0.012845516 0.0009987116
000070 e8 de 63 3c ad b6 d2 bd 03 2e 1f 3c cf 30 ae 3c
       0.013908125 -0.10288749 0.00971556 0.021263508
000080 23 00 3a be 8e b5 80 3c 32 61 18 bd 86 48 11 bd
       -0.18164115 0.015711572 -0.037202068 -0.035469554
000090 32 66 01 3e b9 5b 09 be da 30 7a 3d dc d3 70 bd
       0.1263664 -0.13413896 0.061081745 -0.058795795
0000a0 05 6e 84 bd 3f 03 54 3d 86 ef ae bc 35 8a e8 3d
       -0.06466297 0.05176091 -0.021354448 0.11354486
0000b0 dd 6f 19 3e 59 d6 51 be b6 90 2f bd 28 06 5d 3d
       0.14984079 -0.20491923 -0.042862616 0.05396095
0000c0 ac 33 95 bd b5 94 30 bd a2 02 89 bc c0 eb fc 3d
       -0.07285246 -0.043110568 -0.016724888 0.12349653
0000d0 53 03 c3 3a 4f 8a 83 3c 48 5c e7 bc 0a 51 40 3e
       0.001487831 0.016057162 -0.028242245 0.18780914
0000e0 b9 8c a8 bd 01 0c 86 3d fd 27 cd 3b 9e f8 57 3e
       -0.08229966 0.06545258 0.0062608705 0.21090934
0000f0 72 75 13 3d 6b 53 95 3d 6e 3c fb 3b c4 ee 11 3e
       0.036000676 0.07291301 0.007667116 0.14251238
000100 28 f2 38 3d 09 84 62 3d 61 00 71 3b 77 6c e6 bc
       0.045152813 0.0553017 0.0036773907 -0.028127892
000110 34 5b 3b 3e 03 14 78 3d 1f 52 5b 3d cb c0 ad bb
       0.1829651 0.06056596 0.053545114 -0.0053025237
000120 4b 40 d6 3d 06 f7 1b bb fe ef d5 3c c4 5c ba 3c
       0.10461482 -0.002379836 0.026115414 0.022749312
000130 d4 48 0d 3e 39 45 f4 3d 26 f2 ab 3d fd 58 85 3d
       0.13797313 0.11927266 0.083957955 0.06511114
000140 21 5f 3a 3d ba 6a 8f 3c 5f 86 0b bd c2 b9 63 bd
       0.04550088 0.017506946 -0.034063693 -0.055597074
000150 33 2a bd 3d 26 b5 84 be 41 d3 3e 3d e8 3e 89 bc
       0.092365645 -0.25919455 0.046588186 -0.016753629
000160 24 56 34 3e e2 cf 75 3d 20 ba b3 bc 6d f6 77 bc
       0.17610985 0.060012706 -0.021939337 -0.015134436
000170 e4 2c 22 3e 75 e2 cf be 04 14 ef 3c 2a d4 2f 3d
       0.15837437 -0.4060246 0.029184349 0.042926945
000180 12 92 c3 bd 41 63 27 be 97 cc 88 bc 93 a9 0c be
       -0.09549345 -0.16346456 -0.016699119 -0.13736562
000190 7b 41 86 3e fa 9a 84 3e 0b 3a 47 bd b3 c9 29 be
       0.26221833 0.25899488 -0.04863934 -0.16580848
0001a0 56 d1 04 be bc 7d 3d be 75 51 dd 3b 70 d3 ab bd
       -0.1297048 -0.18504995 0.006754095 -0.08389938
0001b0 43 f0 2a 3e 08 c4 11 3e ab 1e cf 3c 96 a5 de bd
       0.16693215 0.14234936 0.025283178 -0.10871427
0001c0 22 03 42 bd b7 d8 16 be 23 22 f8 3b 57 b0 de 3b
       -0.04736627 -0.14731108 0.007572429 0.0067959237
0001d0 11 b9 0f 3d 5b a7 1c 3e 1d 0b 2f bc 59 0e eb 3d
       0.035088602 0.15298216 -0.010683802 0.11477346
0001e0 62 b7 b8 bc c3 15 95 bd 48 9b 04 3d 96 44 7b 3d
       -0.022548381 -0.07279541 0.03237465 0.061344706
0001f0 48 3e e9 3e 3b 99 12 3d d5 8a f4 bb 7e 38 b3 3d
       0.4555533 0.035790663 -0.007462839 0.087510094
000200 ff 66 66 bd 67 98 d8 bc 65 17 3a 38 b4 12 ae 3d
       -0.05625057 -0.026439859 4.4367644e-05 0.08499661
000210 95 c7 96 3e 79 db aa 3c 4f 7c e1 3c d6 aa ff 3d
       0.29449144 0.020856606 0.027525095 0.12483756
000220 98 5a 36 bd 5b 45 94 bc 70 ef fb bc 8b c8 dc 3d
       -0.04451999 -0.018099478 -0.030753821 0.10780438
000230 f9 21 b7 3d 57 d2 9e 3c 97 8f 7f bc 27 29 1c 3e
       0.08942027 0.019387407 -0.015598199 0.15250073
000240 cc 03 8e bd 58 6e a3 bb b5 c7 40 3d 21 4d 5e bc
       -0.06934318 -0.0049875192 0.047065455 -0.013568194
000250 12 91 a0 bd 70 85 35 be 27 75 22 bd 8e 59 1c bd
       -0.0784017 -0.17726684 -0.039662506 -0.038171344
000260 49 a5 94 bd 5c c5 96 bd 87 9c 64 bd 63 ce 7d 3c
       -0.07258088 -0.07361862 -0.05581334 0.015491101
000270 b2 49 06 bd 54 69 b1 3d 79 2f cb ba cb 4b e1 3d
       -0.032785125 0.08662668 -0.0015501819 0.110007845
000280 0b 41 31 bd 54 32 cc bd f9 99 42 bd 37 e7 2e 3c
       -0.04327492 -0.09970537 -0.04751012 0.010675243
000290 46 6e f0 3d 7c 03 08 3e 0a 5f ae bc 50 53 04 3c
       0.11739783 0.13282579 -0.021285553 0.008076504
0002a0 cd ec 40 3c aa 66 97 bd e8 70 58 bc 3f 9b 41 be
       0.011775208 -0.073926285 -0.013210513 -0.18906878
0002b0 6a 24 a3 bc 96 28 49 3d 90 bd 1c bc 89 3b ea bd
       -0.019914825 0.04911097 -0.00956668 -0.11437137
0002c0 39 31 16 bc 46 6d a7 3c e5 42 61 bd fe ad a9 bc
       -0.009167009 0.020437848 -0.054995436 -0.020712849
0002d0 dd 12 a5 3d 66 7f 99 bb 5b 83 b3 bc 0a c8 86 bc
       0.080602385 -0.0046843765 -0.021913221 -0.016452808
0002e0 79 37 82 3d 08 d8 89 bd e0 1c 8e bb 68 25 17 3e
       0.06358237 -0.06730658 -0.0043369383 0.14760363
0002f0 74 b3 2d 3e e4 c4 aa 3d 8c 79 4f bc 9d df 5a 3d
       0.16962987 0.08338335 -0.012663256 0.05343591
000300 12 12 0b 3e 95 a7 8d 3c e6 c2 71 bd 31 e9 c8 bd
       0.13581112 0.017291823 -0.05902376 -0.09810103
000310 de a1 02 bc 4a a2 0e be c0 69 b0 bd 2f 8f f0 bd
       -0.007973162 -0.13929096 -0.0861392 -0.1174606
000320 6c 1d 0d 3e 80 48 5f 3d 8c 02 30 3c 30 18 33 3d
       0.13780755 0.0545125 0.010742795 0.04372424
000330 2a 97 a9 3c fd 6f 90 bd b1 2e bc 3c e8 dc 10 3e
       0.020701963 -0.0705261 0.022971483 0.14146769
000340 a3 01 bf 3c 2c 5f f3 bc 24 5d 08 3d 45 46 7c bd
       0.02331621 -0.029708467 0.03329195 -0.06159045
000350 5f 6e 32 3e 83 49 5c be 1b 70 5e 3c 5e 6e 2a bc
       0.17424916 -0.21512417 0.013576533 -0.01040229
000360 22 6d 5d bd aa 14 aa 3e d7 67 c0 bb d2 2e 9c bd
       -0.054059155 0.3321889 -0.0058717537 -0.07626118
000370 cf e3 0a 3c 94 80 9e bc 5b 65 84 bd 2e 37 ac 3b
       0.008477165 -0.01934842 -0.064646445 0.0052556014
000380 03 fc 5e bd 53 0b 55 3e 66 f6 7f 3b 74 aa 24 be
       -0.054439556 0.20805101 0.0039056777 -0.16080648
000390 c3 4f f8 3c e2 c8 72 be b2 0f 8e bc 09 07 f0 bd
       0.03031147 -0.23709443 -0.017341468 -0.11720092
0003a0 e8 ec a2 3c 3e f1 81 3e 51 cb 54 3d 9e d3 a5 bd
       0.019888356 0.25379366 0.05195171 -0.080970034
0003b0 81 0a c3 3c 3e 70 03 bf bf aa 1c 3d e7 29 86 bc
       0.02380872 -0.51343143 0.038248774 -0.016377402
0003c0 01 0f bc 3a 93 d1 4f be b0 5a a7 3c f1 cd ac bd
       0.0014347733 -0.2029479 0.020428985 -0.08437718
0003d0 93 05 1a 3e 61 6f 7a be e1 17 85 3d 61 fb a2 bd
       0.15041189 -0.2445655 0.06498695 -0.07958103
0003e0 d2 fa 29 3d 8d 03 1a be d5 25 83 3c 8a f0 c1 bd
       0.041498967 -0.15040417 0.01600925 -0.09469707
0003f0 00 e6 54 3d ad c5 60 bd 69 58 97 3c 02 e5 80 bd
       0.051977158 -0.05487602 0.018474774 -0.0629368

fc1.bias f4 [256]
000000 9c 59 a3 3e cd 62 b7 3d 55 7f 44 be c4 ea 6b bd
       0.31904304 0.08954392 -0.19189198 -0.057596937
000010 af c3 15 be 0a 87 e7 3d 26 b0 21 be 5a 6b 77 bd
       -0.14625429 0.113050535 -0.15789852 -0.060405113
000020 71 8c 07 be a1 93 52 3e 7a 66 03 be d1 a1 89 3e
       -0.13237168 0.20564128 -0.1283206 0.2688127
000030 1d f8 e6 bd 89 60 c7 bd ff e3 ec bc e8 4d aa bc
       -0.112777926 -0.097352095 -0.02891731 -0.020789102
000040 af e3 fd 3d 5a a3 39 3e cc 32 a5 bd 63 34 99 3d
       0.12396943 0.1812872 -0.08066329 0.07480695
000050 5d a6 5b 3e b8 73 a1 3b c9 25 4d bd 3f 43 e1 3d
       0.21450181 0.004927125 -0.050084863 0.10999154
000060 98 83 35 3d 70 31 5b 3e 64 c3 f9 bd 58 36 cd bc
       0.04431495 0.21405578 -0.12195471 -0.025050327
000070 86 da 2e 3e 2b 11 ac 3d ee f8 fd 3d be a0 8e 3d
       0.17075548 0.08401712 0.12400995 0.06964253
000080 85 09 70 be 03 0f 24 be 3a c8 40 3e 31 2d f9 bc
       -0.23441131 -0.16021352 0.1882638 -0.030417057
000090 ea 87 85 3d 5e 59 65 bd 48 1b 3b 3b 8d 4b d7 3d
       0.06520064 -0.05599343 0.0028550196 0.10512457
0000a0 ab a0 a3 be 78 45 73 3e 95 56 4b be e0 2d 9d bd
       -0.31958517 0.23756969 -0.19857247 -0.076747656
0000b0 29 87 0e 3d 38 8a b4 3c a8 90 4a 3e 25 39 53 3e
       0.034796868 0.022038564 0.19781744 0.20627268
0000c0 91 4e cb bb ed 4e 38 3e e0 39 4d be cf 2d 57 bc
       -0.006204434 0.17998858 -0.20041609 -0.01313348
0000d0 10 b7 8b 3c 26 71 76 3e 09 73 06 3d 69 33 38 3e
       0.017055064 0.240666 0.03282455 0.17988361
0000e0 63 f6 6e be 02 ff f8 3d d3 f4 d9 3d c4 88 0c 3e
       -0.23336177 0.12158014 0.106424 0.13724047
0000f0 7a 19 1b be 32 49 a2 bd 4d 2a 1c 3d 80 90 ce 3d
       -0.15146437 -0.07924117 0.03812628 0.10086155
000100 1a d5 85 bd fe dd 8d 3b 83 4a 3a 3c 4d 7d bb bd
       -0.065347865 0.004329442 0.011370304 -0.091547586
000110 46 ec f1 bd b1 6b 80 3e 00 5b ec 3d 6a 25 50 3d
       -0.11812644 0.25082162 0.115407944 0.05081693
000120 7f 3c d7 3d 67 f5 87 be 3c 71 91 3d 5d 09 f8 3c
       0.105095856 -0.26554415 0.07101676 0.030277902
000130 c0 d3 04 3e 55 9b 61 3d f3 6f 64 be 7b 9c 3c be
       0.12971401 0.055079777 -0.2230833 -0.18419068
000140 67 5f 07 3e 6c e8 89 3d 7b ae 00 be bb 01 80 3e
       0.13219987 0.06733784 -0.12566559 0.2500132
000150 7b 87 89 bd 8f 06 6c bd 15 7a 92 bd 70 31 49 bd
       -0.06715294 -0.057623442 -0.071521915 -0.049119413
000160 6b 7e 1e be d4 13 97 be 43 9a 52 3d 5f 9d 4f bd
       -0.15477912 -0.29507315 0.051416647 -0.05068719
000170 a7 68 32 be 37 6e 42 be 97 64 18 3e 99 81 91 3e
       -0.17422734 -0.18987356 0.14882122 0.28419188
000180 bc 34 72 3e 2c ef 1f 3d 93 45 9f bb e4 b6 ec 3d
       0.23652929 0.03904645 -0.004860589 0.11558321
000190 cd 57 12 3e 27 cf 80 3c 37 b5 23 be 28 05 c8 3d
       0.14291306 0.015723778 -0.15987097 0.097666085
0001a0 53 00 c3 bd 79 04 46 3c 03 11 24 3d 67 a8 d7 3c
       -0.09521546 0.012086027 0.040055286 0.026325418
0001b0 14 e0 0c be 5b 5c 2d 3e 9f a3 b7 3d 5a f0 15 be
       -0.13757354 0.16929762 0.08966755 -0.14642468
0001c0 f4 d4 a4 3c ad 67 4f be cf 21 45 be 8e 54 c6 bd
       0.020121075 -0.20254393 -0.19251178 -0.09684096
0001d0 24 e8 bf 3c fe e6 35 3e 4e 00 15 3d 85 17 ad 3c
       0.023426123 0.17763898 0.036377244 0.021129379
0001e0 84 2a dd 3d 05 57 bd bc b2 04 57 3d 21 48 1b be
       0.10799125 -0.023112783 0.052494712 -0.15164234
0001f0 fd 5f 05 3e 20 7b 25 be 8b bb 7b 3d 07 28 00 3e
       0.13024898 -0.1616025 0.06145815 0.12515269
000200 f9 20 06 be 1a de d9 3b 7b 64 ff bd 30 b9 68 3e
       -0.13098516 0.006648791 -0.12470337 0.22726893
000210 4b 25 46 3b 63 06 4e 3c 48 51 4b 3e ec e9 0b be
       0.003023463 0.012574765 0.19855225 -0.13663453
000220 ee 02 92 3d 05 f6 4b bd 9e 97 11 3e a2 57 a8 3c
       0.07129465 -0.04979517 0.14217994 0.0205496
000230 56 9e 0b 39 27 46 fb bd 96 a3 3d be 7d 43 61 3e
       0.00013315058 -0.1226924 -0.18519434 0.21998401
000240 a7 9d 9d 3d 91 72 a3 3d 76 bf 6c 3d 86 6f a2 3d
       0.076960854 0.07980836 0.05779978 0.07931428
000250 b2 48 0d 3e a2 3b 45 3d 7a f5 45 3e bd e9 2b be
       0.13797262 0.048152573 0.19331923 -0.16788383
000260 38 b5 26 be 09 1c 3f 3d a6 00 dc 3d dc 71 6e bb
       -0.16280067 0.046657596 0.10742311 -0.0036383783
000270 9f 31 29 be 3d 12 47 3e 92 0a bd bd cf d7 05 3d
       -0.16522835 0.19440551 -0.09230532 0.032676514
000280 2b c3 95 bd 31 ae 8f bd 70 42 5e 3e d5 1d 8b 3d
       -0.07312616 -0.07015646 0.21705031 0.067927994
000290 6e a4 9c 3c bf 19 f0 bc 7c c2 d3 bd 85 c2 5f be
       0.019121375 -0.029309152 -0.10339829 -0.21851547
0002a0 a9 14 2a bd 17 8c 2d bd 04 4e 8e 3d d6 fa c8 bc
       -0.04152361 -0.04236993 0.06948474 -0.02453367
0002b0 ef b3 32 3e 50 77 2a be 71 16 73 3d f4 95 34 3e
       0.17451452 -0.16647077 0.059347574 0.17635328
0002c0 cc 75 3e 3d 39 c6 3a 3e 60 c7 20 be 26 2b f7 bc
       0.04649906 0.18239678 -0.15701056 -0.030171942
0002d0 63 84 10 be d9 2a 78 bd ad 08 3e 3e b4 67 09 be
       -0.14113002 -0.060587738 0.18557997 -0.13418466
0002e0 4b 7c bd bd 63 27 b7 3c bc 72 38 be a3 95 43 3d
       -0.092522226 0.022357648 -0.18012518 0.047750127
0002f0 03 9c f5 bd e1 af b4 bd f5 64 8d 3e c9 fe fd bd
       -0.119926475 -0.08822609 0.27616087 -0.12402112
000300 81 2e d8 bd f5 bd 60 3c 37 87 ca bd 7b 46 15 be
       -0.10555745 0.013717164 -0.098890714 -0.14577667
000310 d4 7e 7b be ff 05 f5 3d 8a 5a 61 3d 1e c8 d9 3b
       -0.245601 0.11964034 0.055017985 0.0066461703
000320 b8 f6 58 be d5 41 f6 bb 71 43 5f bc 71 52 18 bd
       -0.21187866 -0.007515172 -0.013626919 -0.037187997
000330 45 0e ec 3c 25 e7 78 bc 94 1a f1 3d dc d2 69 3e
       0.028815398 -0.015191828 0.117726475 0.22834343
000340 5a 5e ff bc 95 e0 38 3e 25 c3 8c bd 96 e0 ed 3d
       -0.03117292 0.18054421 -0.06873158 0.11615102
000350 88 31 14 3d 93 43 f1 3b 2c dd 84 3c a5 7d 54 3d
       0.03618005 0.007362792 0.016218744 0.051877636
000360 2c 64 3c 3e b0 8f 04 bd 79 38 7d 3d 40 fb b2 3d
       0.18397588 -0.032363594 0.061821435 0.087393284
000370 6e 08 88 3c 0f 9d 15 be 59 90 cf 3d 7c 91 8f 3d
       0.016605582 -0.14610694 0.10134954 0.07010171
000380 87 23 7a 3d 34 cb 5b bd fa 18 76 3d ba 51 1b be
       0.061069038 -0.053660586 0.060082413 -0.15167895
000390 04 22 87 be 04 42 a8 bd d6 da bd bd cd 90 20 be
       -0.2639314 -0.082157165 -0.09270255 -0.15680237
0003a0 bf 36 5b bd 22 ad 59 bd e2 49 03 bd f2 7f 04 bc
       -0.053519007 -0.053143628 -0.032052882 -0.008087145
0003b0 94 42 bb 3d 8a 10 9a bb 6f 56 71 3d 11 40 c6 3d
       0.09143558 -0.0047016786 0.05892032 0.096801884
0003c0 b1 a6 90 bc b4 3b c8 bd 81 28 32 3e 5f 83 3a be
       -0.01765761 -0.097770125 0.17398264 -0.18214177
0003d0 65 be ad bd 6b 92 db 3d e2 15 bc 3d f3 47 9e bd
       -0.084835805 0.107212864 0.09183861 -0.07728567
0003e0 95 7b 88 be 17 9a 4a be ac 44 0b 3e 6a 40 2a 3d
       -0.26656786 -0.19785343 0.13600415 0.041565336
0003f0 50 01 48 be f2 b6 f4 3c 21 62 40 bd 0d 02 09 3e
       -0.1953175 0.029872391 -0.046968583 0.13379689

fc2.weight f4 [256, 256]
000000 38 e5 bb bd c0 fe d3 bb 5b f5 05 3e 7f 7e 3b bd
       -0.091745794 -0.0064695776 0.13081877 -0.045774933
000010 4d 58 e7 bd 96 ad 94 3c d7 7b cb 3c 96 1c 3a bc
       -0.11296139 0.018149178 0.024839325 -0.0113593545
000020 4e 1a bf bc d6 c0 d7 3c 77 34 8c 3d cd ba 09 3d
       -0.023327973 0.026337069 0.068459444 0.033625413
000030 59 2d 82 3c 38 b0 74 bb d4 a4 ce bd ed 3f 6a 3b
       0.015890764 -0.003733648 -0.10090032 0.003574367
000040 f9 14 3a 3d 47 92 02 be 85 fe 97 3d 12 fa fa 3c
       0.045430157 -0.12751113 0.074215926 0.030636821
000050 b0 ae 2b be 92 ab 89 3d a1 89 0c 3d 33 a2 a8 3c
       -0.16765857 0.067221776 0.03431094 0.020585155
000060 98 a4 55 bd 0f 48 86 3d d5 d8 47 3b 22 2b b7 b8
       -0.052158922 0.06556713 0.0030494232 -8.734154e-05
000070 21 3c 3b 3d 5c 6c ce bc a6 c6 2b 3e db be 19 3e
       0.04571164 -0.025198154 0.16774997 0.15014212
000080 83 f1 62 3d 2b 8f 07 be 3a 05 ac bc b6 17 85 bc
       0.055406105 -0.13238208 -0.020998586 -0.016246658
000090 9c d4 80 be 69 3a 9b bd 9e 04 03 bc b5 11 48 3d
       -0.25162208 -0.075795 -0.007996706 0.04884501
0000a0 0e b4 8d 3d f2 ce 9c 3d 24 08 9d bb b8 73 11 3d
       0.06919108 0.07656659 -0.00479223 0.03551075
0000b0 71 28 d4 bc 69 77 49 3c cd fd 90 3d 47 ed dd bc
       -0.02589819 0.012296536 0.07079659 -0.027090682
0000c0 15 e7 0e 3d b1 39 ee bc 40 de e0 3c 67 f7 10 bd
       0.034888346 -0.029080244 0.027449727 -0.03539219
0000d0 0d eb 9d bd cc cc 46 3d f3 f0 b3 3d 32 40 85 bc
       -0.07710848 0.048535153 0.08786192 -0.016265962
0000e0 fc af 6b bc 8e f0 a6 bd 97 9b 55 bd 5a 9f fb bc
       -0.01438522 -0.08151351 -0.052150335 -0.030715633
0000f0 3c 9c 8c bd 27 b1 ae 3d e8 c5 11 3d df 26 f9 3c
       -0.06865737 0.08529883 0.03558913 0.030414043
000100 0d d8 77 3d ea 01 12 3b d1 3b b6 3d 3c ac 09 bd
       0.060508776 0.0022278973 0.08898128 -0.03361152
000110 90 c1 89 bc 49 0b 64 bd c2 44 76 3d 63 79 77 be
       -0.01681593 -0.055674825 0.060124166 -0.24167399
000120 f1 ac 25 3e d6 81 f4 bc f6 c5 4c bd 61 c9 32 bd
       0.16179253 -0.029847067 -0.049993478 -0.04364908
000130 8c 5e 49 bd 95 97 85 bc 7c 0f 13 3e 5a 84 77 bc
       -0.049162433 -0.016307632 0.14361376 -0.015107239
000140 6d 01 6e 3d 4a 2e 02 3e 00 21 8f 3c 9a 51 22 be
       0.05810683 0.1271297 0.01747179 -0.15851441
000150 6b f0 04 be d1 67 a5 3d 26 cc 0a 3e 82 10 a0 3d
       -0.12982337 0.08076442 0.13554439 0.078156486
000160 00 eb 97 3c 56 83 d6 3d 0f c6 81 bb 09 c1 cc 3c
       0.018544674 0.10474269 -0.003960378 0.02499439
000170 7e 22 3e 3d 38 c1 0b 3e 8b 2a c4 bd 56 f3 a7 3c
       0.046419613 0.13647926 -0.09578427 0.020501774
000180 46 b5 03 bd 51 87 0a be fc 86 2c 3d d4 94 10 be
       -0.032155298 -0.13528182 0.04212092 -0.14119273
000190 95 87 86 bd 0d 58 0d 3d f3 b2 31 3d 43 90 55 3d
       -0.06568829 0.0345078 0.04338355 0.05213953
0001a0 68 c4 44 bc 2e 69 b7 bd b9 59 79 bd 32 db 77 3d
       -0.0120097175 -0.08955608 -0.06087658 0.060511775
0001b0 d4 0d 4e 3d 79 3d 6b 3d 3f fe 2f bd 70 67 a1 3d
       0.050306156 0.05743167 -0.042967077 0.07881057
0001c0 06 c9 f4 bd a9 c5 b6 3d 97 37 6c 3d 98 8d 0a bc
       -0.11952405 0.089244194 0.057670202 -0.00845661
0001d0 b4 a6 8b 3c c6 68 45 bd 30 46 c5 bd 3f 9f 9c 3a
       0.017047264 -0.048195623 -0.09632528 0.0011949315
0001e0 fc f9 c6 bd 28 ba 4f bb 34 12 d7 bc b1 1f 57 3d
       -0.097156495 -0.003169665 -0.026253797 0.052520458
0001f0 9f 0c 46 bd 1f 9d 4f 3d 3b 7d 4c 3d 39 0b 9f bc
       -0.04835188 0.05068695 0.049924117 -0.019414531
000200 29 2f 87 bc 27 6d 11 bd 06 4a 1c 3d b1 4a 95 3a
       -0.01650198 -0.035504486 0.03815653 0.0011390058
000210 86 3a 8b 3d 44 c8 9b 3d 9c 90 1a bd 7f 85 68 3d
       0.06798272 0.07606557 -0.037735566 0.056767937
000220 19 a8 2a bd 64 a3 00 3e a4 0e f4 3d 21 3b 8e 3d
       -0.041664217 0.12562329 0.11916855 0.06944872
000230 88 1f e5 bc 43 2b db 3c 94 8b 31 3c 78 3e 93 bd
       -0.027969137 0.026754027 0.010836501 -0.07189649
000240 a7 17 37 bd 14 8b a1 3d 34 5f bc 3d 84 e4 94 bd
       -0.04470029 0.07887855 0.09197846 -0.072701484
000250 e9 9f 78 bd 57 b8 83 bc b8 22 95 bc b8 f9 81 bd
       -0.060699377 -0.016079111 -0.018205032 -0.06346458
000260 b4 63 d0 3d 8a 58 6b bb 96 a5 ae bd f5 6c 6b bd
       0.10175267 -0.0035910928 -0.08527677 -0.057476956
000270 00 c1 5c bd e5 31 ad bc 12 c4 0e bd ff f1 70 3d
       -0.053894997 -0.021141956 -0.034854956 0.058824535
000280 9a eb 97 3d 92 4c 83 be 14 c9 9d bd 52 e1 00 be
       0.07417984 -0.25644356 -0.07704368 -0.12585953
000290 52 c8 ac bd ab b9 fb bd bb a2 50 3d 48 21 97 3d
       -0.084366456 -0.12291273 0.050936442 0.07379395
0002a0 43 eb af bd e2 4e 0d 3d 60 05 d4 3d 1b 6b 92 3d
       -0.085897945 0.034499057 0.10352588 0.07149335
0002b0 5e 43 b1 3d d5 91 e8 3d d1 ab 51 bc 15 b1 17 be
       0.086554274 0.1135594 -0.012797312 -0.14813645
0002c0 b2 27 ac bd ba a4 8e 3c d2 97 42 3d ea fc ca bb
       -0.08406009 0.017412532 0.04750807 -0.0061947005
0002d0 87 30 3e bd 4c 6d d1 bc c5 21 1c bd 63 c9 d9 3c
       -0.046432998 -0.025564812 -0.038118143 0.026585286
0002e0 57 e1 82 bd df 8f ef bb eb f1 64 bc 21 e8 19 bd
       -0.063906364 -0.007310852 -0.013973693 -0.03757489
0002f0 3c eb 38 3c ec 88 51 3d fe 54 1b 3d 70 0c 63 be
       0.011286553 0.05115597 0.03792285 -0.22172713
000300 65 92 bc 3d 26 b6 44 3b 08 b0 29 3d 46 70 f8 bc
       0.0920761 0.0030015795 0.041427642 -0.030326974
000310 17 3d 04 be 7f 48 cb 3d 0a 30 6d bc 24 bb 4b bd
       -0.12913929 0.09925937 -0.014476785 -0.049739018
000320 27 93 cb bd 9c 90 b9 3c 9e a9 b4 3d 22 9e 48 bc
       -0.099401765 0.022651963 0.088214144 -0.012244733
000330 27 c0 86 3d b6 9f 12 3c df f7 94 bd 87 43 a6 bc
       0.06579619 0.008949211 -0.0727384 -0.020295871
000340 9d 3e 1a 3e 86 9c a5 bd 4f bb 74 bd f8 75 1a 3e
       0.15062948 -0.08086495 -0.059748944 0.15084064
000350 33 51 c1 bb d0 69 12 bd 43 eb b7 bd 6f cd 58 3d
       -0.0058995723 -0.035745442 -0.089804195 0.05293029
000360 d8 f6 e1 3c cc e8 7e bc 78 8c 8e 3c 47 85 8f bd
       0.027583525 -0.015558433 0.017400965 -0.070078425
000370 32 df 3b 3d 7d d7 a5 3d 95 d9 0d 3d 17 04 3f 3d
       0.045867153 0.08097742 0.03463133 0.04663476
000380 3f f4 39 3c 53 1d 57 bd 13 df 14 3e f2 a3 83 3d
       0.011349737 -0.0525182 0.14538221 0.064277545
000390 30 f8 3c bd 8b 41 b9 3a 38 d3 b2 3d 96 37 6c 3d
       -0.046135128 0.0014133913 0.08731693 0.0576702
0003a0 39 60 e1 39 31 c2 3d be 61 dc 34 3d 2c a8 44 3d
       0.00042987036 -0.1853111 0.044155482 0.048011944
0003b0 b7 6e 2a 3e f5 e5 ac 3d dc ef ab 3d fc 12 14 be
       0.16643797 0.08442298 0.08395359 -0.14460367
0003c0 6b 37 a6 bd 3d ca e9 bc 6c a7 2e 3c c2 5c 9e bd
       -0.08116039 -0.028538818 0.010660034 -0.07732536
0003d0 20 a3 98 bd 83 6c 28 3e a4 c6 ce bc 2e 33 2a be
       -0.074529886 0.16447644 -0.025241204 -0.16621086
0003e0 e8 9b 30 3d 9f e1 39 bd 74 c3 bf 3c a9 fd fa bd
       0.043117434 -0.045381185 0.023408629 -0.12255413
0003f0 6d 61 15 3d 25 c7 c0 3d cf 16 07 3c 2e c5 c5 bd
       0.036469866 0.09412984 0.008245184 -0.0965675

fc2.bias f4 [256]
000000 9a ea 3e 3d 2e 3e 5f bd e1 67 a4 bc 98 9d 65 3d
       0.046610452 -0.05450266 -0.020069065 0.056058496
000010 cb a8 51 ba 82 ec 31 bc f7 39 93 3d 71 96 16 be
       -0.00079978694 -0.0108596105 0.0718879 -0.14705826
000020 0e 0e 67 bc 1b fa 7d bd f9 ea 40 3d b1 ab 26 3d
       -0.014102472 -0.062006097 0.047099087 0.04069108
000030 fc 39 95 bd 5f 7b 3b bd c6 ab 45 bd b0 94 23 bd
       -0.0728645 -0.045771953 -0.04825952 -0.03993672
000040 59 c8 ed bc 31 83 b9 3c 07 55 12 3d 89 20 af bd
       -0.029026197 0.022645565 0.03572562 -0.085511275
000050 90 2d c6 bb e8 af 83 3a c6 ca eb bc b0 02 eb bb
       -0.006047912 0.0010046931 -0.028783213 -0.0071719512
000060 9e 76 e6 bc b6 b4 dd 3d 31 ed 24 3c cf f8 84 3d
       -0.028132733 0.108254835 0.010066316 0.06492769
000070 68 f7 16 3c 90 ca ee 3d 07 63 28 bd 23 88 14 3d
       0.00921426 0.116597295 -0.041110065 0.036262643
000080 02 5c fa bd 66 fb 33 3c 74 67 4c 3d d1 05 28 bd
       -0.1222458 0.010985231 0.049903348 -0.041021172
000090 c6 83 7e 3c c2 bc 15 be cf 86 f7 bb 47 03 c7 bd
       0.015534347 -0.14622787 -0.0075539122 -0.09717422
0000a0 d4 c8 cb bd fe 00 eb bc 94 f4 39 bd c9 c3 8a 3d
       -0.09950414 -0.028686997 -0.045399264 0.06775624
0000b0 92 ed 33 bc a9 1b c8 3c be ee 05 3d 63 bf e8 bc
       -0.010981934 0.024427252 0.032698385 -0.028411573
0000c0 76 1b cc 3c 6f 2d 64 3d b7 e2 07 3c 73 95 cd 3d
       0.024915438 0.05570739 0.008293799 0.10038271
0000d0 1a a4 93 bd 3d 7c 50 bc 8f 97 88 3b fd 80 b2 3d
       -0.07209034 -0.012724933 0.004168458 0.08716009
0000e0 ef 32 24 bb b1 2d 0b bd 26 18 9d bd d0 e9 94 3c
       -0.0025054773 -0.03397912 -0.076706216 0.018177897
0000f0 5c e7 88 bd fb e2 de bc 08 d7 ab bc c0 9c 0c bd
       -0.06684753 -0.027207842 -0.020976558 -0.034329176
000100 74 26 e9 bd 33 28 d3 bd 8c b8 ca bc 5b 35 9f bd
       -0.113842875 -0.10310402 -0.024746202 -0.077738486
000110 cf 2e 29 bd 0b 08 16 bd 86 90 21 bc 69 d6 ac bd
       -0.041304406 -0.036628764 -0.009861117 -0.08439333
000120 b9 09 f6 3b 92 8b 30 bc fb 53 08 bd 2c e9 62 bd
       0.0075084832 -0.010775464 -0.033283215 -0.05539815
000130 1f 9a 80 3d b9 83 97 bd e6 25 b8 3c 5b 12 3d bd
       0.06279396 -0.07398171 0.022479009 -0.046160083
000140 f8 12 eb 3c e4 8d a8 3d 7f 0c 1d bd 3a c8 bb bd
       0.028695568 0.082301885 -0.038341995 -0.091690496
000150 5d fb 75 bc b3 04 ec bd 99 89 c1 3c 37 f4 1a bd
       -0.015013543 -0.11524334 0.023625182 -0.037830558
000160 31 d4 56 bb 45 63 ee 3d 1d da e1 bd 0a 0c fd bd
       -0.0032780285 0.11640028 -0.1102793 -0.12355812
000170 35 7c 03 3d d0 94 a8 bc 97 3f 97 bd 10 91 b0 bc
       0.032100875 -0.020578772 -0.07385176 -0.021553546
000180 46 99 4b 3d 69 e4 81 bd 67 f6 9b bc a1 ca 37 bd
       0.04970672 -0.06342394 -0.019038392 -0.044870976
000190 8c 6a ab bc 3b c6 da bd b1 73 2d 3d 80 d0 9e 3d
       -0.020924829 -0.10682341 0.04234666 0.07754612
0001a0 e9 ab 81 bc f1 16 c7 3d 22 fc cc bc 7f f4 36 3d
       -0.015829043 0.097211726 -0.02502257 0.044666763
0001b0 46 3c 15 bc 54 14 7a 3d 53 d1 14 be 6c d9 6e 3d
       -0.009108609 0.061054543 -0.14532976 0.05831282
0001c0 13 33 91 3d 27 0c 4b bd 17 07 4f bd 8e d1 a7 ba
       0.0708982 -0.049572136 -0.05054387 -0.0012803541
0001d0 36 ca 93 bd ec e8 37 3c 20 8d 88 bd 3d e3 67 3d
       -0.07216303 0.0112249665 -0.066675425 0.056613196
0001e0 e1 28 c6 bc 33 56 32 bd fa 1e cd 3d bb 7d 66 3c
       -0.024189414 -0.043539237 0.10015674 0.014068062
0001f0 4f 2b db bd f8 4f 14 3d 3f 10 bd bd 60 ce 32 bd
       -0.1070162 0.036209077 -0.09231614 -0.043653846
000200 09 fc 17 3b 76 ad 8f 3d fd c2 e4 3d 6d c0 b2 3c
       0.0023190996 0.07015507 0.111700036 0.021820271
000210 99 b4 64 bd 51 a6 14 bd 0d 95 8c bd 64 dc a2 bd
       -0.055836294 -0.036291424 -0.06864367 -0.079521924
000220 5c 8d df bc 2b e6 56 3d 11 5c 10 bd 4e 19 a8 bd
       -0.027289085 0.0524656 -0.03524405 -0.082079515
000230 f7 24 79 3d af 90 e7 3c 25 46 f7 bc c4 72 c2 bc
       0.060826268 0.028267233 -0.030184815 -0.023736365
000240 7d 7b 1b bd 9a 9f 04 bd 06 a9 80 3c 87 e7 3e bc
       -0.037959564 -0.03237877 0.015705597 -0.01165188
000250 47 4c 00 bd c0 f5 c4 3d ec 83 38 bc 4b 3d f7 3c
       -0.031322744 0.096171856 -0.011261921 0.030180594
000260 7c 69 ac 3d 23 3d f1 bd 99 f7 cf 3c 14 4d 77 3c
       0.08418557 -0.11779239 0.025386618 0.01509406
000270 7e 39 87 3d 13 87 63 bd c4 bc 49 bd 5f 54 14 bd
       0.06602763 -0.05554874 -0.049252287 -0.036213275
000280 ae 34 00 bd 6b 05 07 3d e4 b1 58 3d 6e c1 c4 bd
       -0.03130024 0.03296415 0.052904025 -0.09607206
000290 44 5f a3 bc bb 4f 52 3d 1e f7 97 3d 5b fb 54 bd
       -0.019942887 0.05134557 0.07420181 -0.051997524
0002a0 81 17 53 bd f1 cc ad bd 64 6b 19 bd a7 ee b1 bd
       -0.051536087 -0.08486355 -0.03745593 -0.086880974
0002b0 22 02 ee bd 35 1b c3 3c 53 fa a1 bc 4b a8 e8 bd
       -0.116215006 0.023816684 -0.019772684 -0.11360224
0002c0 a2 d0 4a bd a8 61 3a bd c1 37 4e bd cf 62 b6 bd
       -0.049515374 -0.04550329 -0.05034614 -0.08905565
0002d0 67 3c 6e ba 01 95 19 3b 18 72 af bd 0c cf 11 3d
       -0.000908798 0.002343476 -0.085666835 0.035597846
0002e0 62 82 d2 bd ac e6 c6 bd cf 9d 7d bb 17 8b cb 3d
       -0.10278775 -0.09711966 -0.0038698798 0.09938639
0002f0 a8 cb a2 bd ed 44 51 3d 78 7b 4b bd ce 58 89 bb
       -0.079490006 0.051091123 -0.049678296 -0.0041914945
000300 da 7a f2 3b 18 84 1a bd ed 57 0c 3d c0 5c f5 3b
       0.007399899 -0.03772363 0.03426354 0.0074878633
000310 dd fc 08 3c 77 ae c8 bc 24 64 8a bc bb c6 c2 bc
       0.008361069 -0.024497254 -0.016893454 -0.023776403
000320 05 ef 8f 3c c6 60 c9 bb 79 8d e2 bc 81 c4 ef ba
       0.017570028 -0.0061455695 -0.02765535 -0.0018292816
000330 4e 71 8f 3d 38 c7 8d bd 9e b8 03 3d 1c ec dd 3b
       0.07004033 -0.069227636 0.032158487 0.006772531
000340 92 c3 bf bd 91 3b db bd f2 1a 07 bd 64 b2 4a bd
       -0.09363474 -0.10704721 -0.03298468 -0.049486533
000350 bc 53 f6 bc 7b 0e 98 3c 1c 97 25 3d ca e3 7e 3d
       -0.030069225 0.018561592 0.040427312 0.062228955
000360 62 7d ce 3d 9c 01 a5 3c 9b dd c6 3d ea e1 97 bd
       0.100825086 0.020142369 0.09710237 -0.074161366
000370 7a 52 47 bc c6 03 ea bc 2d 31 92 bc 4d 05 83 bc
       -0.01216566 -0.028566252 -0.017845714 -0.015993739
000380 cb 9f 48 3c 64 2f 94 3d 26 5b e9 bc 56 12 b9 bd
       0.012245129 0.072356015 -0.028485846 -0.090367004
000390 35 c5 0f bd 50 57 b3 3c 84 a9 10 3d 25 0d c4 bd
       -0.03510018 0.02189222 0.035317913 -0.095728196
0003a0 7e a7 06 bd 6b fe a3 3d 2b c5 a6 bd 94 cc b1 bd
       -0.032874577 0.08007511 -0.081430756 -0.08681598
0003b0 63 68 7b bd a9 6a cc bd ef 4f 93 3d ab 1f 47 bc
       -0.061378848 -0.09981281 0.071929805 -0.012153546
0003c0 b8 01 43 3d 72 0c 9c bd c7 14 8c bd f4 d1 e9 bc
       0.04760906 -0.07619561 -0.068399005 -0.028542496
0003d0 24 a4 8b bc 3d c8 45 bd c4 83 21 bd 4d 40 aa bc
       -0.017046042 -0.048286665 -0.039432302 -0.020782614
0003e0 81 ef cf 3b 7d 00 26 bd cb 26 67 3d 16 c6 56 3d
       0.0063456898 -0.04052781 0.05643348 0.052435003
0003f0 76 3b 56 3d 94 f4 bc bc d2 a9 43 bd 3b b6 17 3c
       0.0523028 -0.023065843 -0.047769375 0.009259756

action.weight f4 [2, 256]
000000 68 3d c1 3c b3 9c c2 bc ae c1 0e 3e 0a d4 75 3e
       0.023588851 -0.02375636 0.1394107 0.24006668
000010 d8 d8 09 bc 02 71 82 bd 52 a9 4b be cd 4f c5 bd
       -0.008413516 -0.06369211 -0.1988881 -0.096343614
000020 e6 b2 9e bd 0a cd 63 bd 90 74 15 3d 90 ee 0e bd
       -0.07748966 -0.055615462 0.036488116 -0.03489548
000030 05 b2 c8 3d 63 50 24 bd 51 a6 62 bd 9f 49 2e bd
       0.097995795 -0.040115725 -0.055334393 -0.04255068
000040 2b 4f 2b bb 8e 25 e9 38 3d ce 0e 3d 03 ec 86 bd
       -0.0026139717 0.00011117301 0.034864653 -0.065879844
000050 30 79 5a be a9 ff 1b 3b bb 98 3c bd c2 f9 ef bd
       -0.21335292 0.0023803508 -0.046044093 -0.117175594
000060 f1 bf 38 3e 6f d3 37 bd af 52 73 3c bf 76 5b 3d
       0.1804197 -0.044879373 0.014851256 0.053580042
000070 1a 7c a4 bd f7 31 9b 3d eb 3d ab 3d 14 8d 20 3e
       -0.08031483 0.075778894 0.08361419 0.15678817
000080 54 8e 16 be 32 80 b4 3b d4 d1 a6 3d 00 23 ba 3b
       -0.14702731 0.005508446 0.0814549 0.005680442
000090 ee 32 8b bc a6 19 33 be c6 3c 32 3e aa a6 65 be
       -0.016992059 -0.17490253 0.17405996 -0.22426859
0000a0 53 74 99 bd 51 21 43 3c b2 f0 a3 bd 88 b9 6e be
       -0.0749289 0.011909799 -0.08004893 -0.23312962
0000b0 9e b1 fe bb bf da 8f be cc d7 67 3d c2 8d 83 bd
       -0.0077726385 -0.28096578 0.056602284 -0.064235225
0000c0 d5 5d fb 3d 39 13 91 bd 93 7d 81 3d 12 be 7c 3d
       0.122737564 -0.070837446 0.063227795 0.061704703
0000d0 34 3e ab bc bf 25 4c bd c8 16 18 3c fa 78 da 3c
       -0.020903684 -0.049840685 0.009282775 0.026669014
0000e0 ca 9a 14 3d 14 b5 13 be 95 7c 9d bd 82 83 42 be
       0.03628043 -0.14424545 -0.07689778 -0.18995479
0000f0 f9 45 af bd 3e e1 ba bd 4a 33 99 3d 08 4f ad ba
       -0.08558268 -0.09124993 0.07480486 -0.0013222406
000100 23 2f c3 bd b2 b7 28 be 97 8e 17 bd 4f 90 d9 bd
       -0.09530475 -0.16476324 -0.03700122 -0.10623228
000110 b2 ea db bd 45 86 3a bd 83 b0 b2 bc 5e 0c d6 bd
       -0.10738124 -0.045538206 -0.021812683 -0.104515776
000120 6a 01 37 3e d6 06 2f bd 38 79 61 ba 26 19 dc bc
       0.17871633 -0.04273113 -0.0008601132 -0.02686746
000130 98 60 a8 3d 13 4a 36 bd 8d 6f 87 3a 45 a0 2e 3e
       0.08221549 -0.044504236 0.0010332927 0.17053325
000140 32 5c 66 3c 37 ed 58 3c 42 74 6e bc 43 e9 56 bc
       0.014060067 0.01324015 -0.014554085 -0.013117137
000150 19 a3 49 bd ac 92 be bd 10 7b 98 3a c5 e3 fd bd
       -0.049227808 -0.09305319 0.0011633355 -0.12396959
000160 44 d6 1d 3d d8 b2 e9 3c ba 7a 86 bc a5 f0 e5 bd
       0.038534418 0.028527662 -0.016415942 -0.1122754
000170 45 4d 3b bd ce 01 07 bc 13 44 40 bd db 94 62 be
       -0.045727987 -0.008240176 -0.04693992 -0.22127096
000180 12 c3 8b 3d e9 d1 04 be b0 fe 33 bd 58 80 19 bd
       0.06824316 -0.129707 -0.04394406 -0.037475914
000190 b7 8d 0e bd cd 55 3d bd 6e 1e 9d 3d fa ce 8a bd
       -0.03480312 -0.046224404 0.076718196 -0.06777759
0001a0 78 d3 b0 bd f1 84 9c 3c f8 4d 57 bd ac 64 e5 bc
       -0.086340845 0.01910636 -0.05256459 -0.028002106
0001b0 ed 09 81 bd e0 96 cf 3b 9a 8f 7e bd 11 fa dc bc
       -0.06300721 0.0063351244 -0.062148668 -0.02697471
0001c0 bd 23 42 3e e5 13 b3 bd d4 90 71 be 51 47 24 be
       0.18958946 -0.08744029 -0.23590404 -0.1604283
0001d0 4c ae 4d bd 65 07 12 be cb e6 5a bd ff fa 59 3d
       -0.05021505 -0.14260633 -0.053442758 0.053217884
0001e0 30 c4 10 3e 58 8b 5f bc 42 01 6a 3d a2 0f a4 3d
       0.1413734 -0.013644062 0.057130106 0.08010794
0001f0 bb ba 45 be 72 56 9a bd 13 10 e1 bc b9 b6 81 3c
       -0.19309513 -0.075360194 -0.027473485 0.0158342
000200 d2 27 aa 3d 0c c9 82 3d c4 fb 43 3e 7a a1 df 3c
       0.08308376 0.06386003 0.1913901 0.027298678
000210 66 73 1d bd d2 d4 09 be 46 c4 cd bd 54 68 fe bc
       -0.03844013 -0.13460091 -0.10047202 -0.031055607
000220 7c 9d 04 3d 70 38 9b 3c 07 33 14 3c ef 3c 8d bd
       0.03237675 0.01894781 0.009045369 -0.06896388
000230 6b 55 18 3d 6a 86 52 3d 03 0e 39 be 92 6d 54 bd
       0.037190836 0.05139772 -0.18071751 -0.051862307
000240 ff 8b e4 bc 31 01 c2 bb fa a9 92 3d 6c a9 32 3e
       -0.027898787 -0.005920552 0.07161327 0.17447442
000250 02 d6 1e bd dc ee 30 3c 2b 74 93 3c 0a 0e b5 3c
       -0.038778313 0.010799136 0.01799973 0.02210142
000260 b0 c1 92 3c 5a 8f 60 bd 82 d0 bb 3c f0 40 6f 3d
       0.017914623 -0.05482421 0.022926573 0.05841154
000270 ee 8e 18 3c 79 24 f5 bc 35 45 ff 3d 36 d1 19 be
       0.009311421 -0.029924618 0.12464372 -0.15021214
000280 bb 16 8a bb a1 72 4f bb a8 32 06 3e a1 40 9d bd
       -0.0042141355 -0.0031654018 0.13105261 -0.076783426
000290 27 8f a4 bd 45 86 2b 3c ee 27 5a 3d d9 98 10 be
       -0.08035117 0.010469024 0.053260736 -0.14120807
0002a0 81 ea 17 be a0 4b bb bc 2e 44 e3 bc 59 55 f5 bd
       -0.1483555 -0.02286321 -0.027742472 -0.119791694
0002b0 71 cf fc bd 4c 25 99 3d b2 24 d5 3d 39 e0 b1 bd
       -0.12344254 0.07477817 0.1040739 -0.08685345
0002c0 bf 3d 85 bc 33 76 00 3e 55 b5 03 bc 06 f8 54 bd
       -0.016264794 0.1254509 -0.008038838 -0.051994346
0002d0 c4 d2 d3 bd 75 d0 66 3d d0 b3 7b bd fb ad fb bd
       -0.10342935 0.056351144 -0.06145078 -0.122890435
0002e0 3c 9a 87 bd ee 97 a9 bd 2e 1f c8 bd c1 a5 f7 3d
       -0.06621215 -0.082809314 -0.09771572 0.12092162
0002f0 58 6b 01 be 32 e3 1f 3c 9a 60 59 bd 60 a5 10 3d
       -0.12638605 0.009758757 -0.053070642 0.035313964
000300 31 52 cb bd cd dd ce bd 6c f8 12 bd 2d c0 3b be
       -0.09927786 -0.10100899 -0.035881445 -0.18335028
000310 29 fd ab 3c de 83 cf bd ff fb 92 3c fb 6d aa 3d
       0.02099474 -0.101325735 0.017942427 0.08321758
000320 5e 87 50 bc c4 08 15 bb bd 42 b8 bd 8b ec 5e bd
       -0.012727587 -0.002274082 -0.08997104 -0.054424804
000330 fe e5 ce bd 40 b7 88 bc 3d 85 a0 bd f8 77 14 3e
       -0.10102461 -0.016688943 -0.07837913 0.1449889
000340 dd bb 57 bd a3 fd 1d be 09 d9 ad 3d 4c 96 2a be
       -0.052669395 -0.15428786 0.08488662 -0.16658896
000350 9c 98 99 bd 4d e3 03 be 95 f5 3c be 16 f7 b3 3d
       -0.07499811 -0.12879677 -0.18453057 0.08787362
000360 7c 7b 88 3d 3a 16 a9 3d 90 73 c7 3c 0a d2 d7 bd
       0.06664178 0.082561925 0.024347097 -0.10538109
000370 84 1f 94 3d 6f ff ae 3c 0c 8c 65 3e a4 1f a4 bd
       0.07232574 0.021362035 0.22416705 -0.080138475
000380 26 3e e8 3c cf 7e 25 3d b0 f6 3b bc 89 53 37 bd
       0.028349947 0.040404137 -0.011472389 -0.0447574
000390 c3 ca 02 bd cf cb 08 39 8f eb f1 bd 16 26 4a bd
       -0.03193165 0.00013045895 -0.11812507 -0.049352728
0003a0 0c 06 28 be 21 b2 30 3c 09 52 27 be 5d f8 9e bd
       -0.16408557 0.010784657 -0.16339888 -0.07762215
0003b0 df 3a 39 bd ef d4 d1 bc 99 3c fa 3d 5d f8 a9 3c
       -0.04522216 -0.02561423 0.12218589 0.020748312
0003c0 06 90 30 3e 12 16 5e bd 81 7f 64 3e 7c 3a a7 bd
       0.1724244 -0.054220267 0.22314264 -0.08165452
0003d0 2a 03 06 bd 0a ac 6b 3e ad 16 40 be fd 0c c8 3d
       -0.03271786 0.23014846 -0.1875865 0.09768102
0003e0 96 91 6f be fc 93 33 be 9c bb a0 bd 8b 78 2b 3e
       -0.2339538 -0.1753692 -0.07848284 0.16745202
0003f0 14 13 dd 3c 14 8d 2d 3d 6a a3 70 be 97 4a 88 bd
       0.026986636 0.04237087 -0.23499838 -0.06654852

action.bias f4 [2]
000000 b4 e9 d4 3d 73 a2 7c 3d
       0.10396138 0.06167836
