agent_2_critic_checkpoint.pth (torch_old, 317447 bytes, 5 tensors)

fc1.weight f4 [256, 50]
00000000: 3827 0d3f c84d 4dbe a404 e3bd c009 33bd
00000010: 10f2 b53e 7e7b 54be 5916 513d fb32 4a3e
00000020: f891 183f ff24 9bbd 2fbb 4cbd 7a76 38be
00000030: c188 a5bd 02e6 11be 1313 1a3d ec00 a9be
00000040: a2cf 853f b483 893e 50e1 72bc e1cb 263e
00000050: d47f f7be 3a88 32bd b3fe 91bd a4a4 063e
00000060: bb27 2c3f a810 e13e 5e55 29bd 5f7a 893e
00000070: 464c 72be f273 2dbe d84d 16bd 800f 033e
00000080: 84aa 133f 78cc 073f 8694 bfbd ebb7 e63d
00000090: 24fb 03be b601 1fbe be42 01bd 77ed 963e
000000a0: bb25 5e3f 43e2 4f3f 694b 9dbd 49f6 553d
000000b0: 00ba 733e 7ad3 453c f15b e53c bb3a fc3d
000000c0: 8a81 adbf 4120 0cbe f9be 193e ab86 94be
000000d0: b5f4 4fbd c1c4 65bc 0ced 39be 7289 6b3e
000000e0: dba4 593d 3ee2 42bc f143 113f 49d0 07bf
000000f0: 5b4e 473c 9f7e 4cbc d8fe 043c c4c6 713e
00000100: f2f4 f0bd ef6b d73d 37fa 243f d3f8 90be
00000110: 4b2d 42bc 5a4a 1ebe 97c4 3dbe 2b80 acbe
00000120: 1212 493d cea5 1bbe 1f85 1c3f b3f4 a13d
00000130: a473 d9bd ca25 043e 6ff3 023d 8c41 f13d
00000140: 6cfd 103b 2e5c 8d3d fb20 5f3f 5775 30be
00000150: d439 2dbe bd36 253d a92f 8a3c c0de 923e
00000160: a780 0dbd 2f26 95bd 8e8d 4b3f 049d 98bd
00000170: 1f44 bbbd 67f2 d13d a5fe 5a3e b9b0 c7be
00000180: f800 ee3c 2e42 873d caeb e53e 4333 3e3f
00000190: 6910 e1bd 14a2 183f eddc a9bc 3013 863d
000001a0: 48ed da3e ff96 a63e a2a2 09bc a64b 9b3c
000001b0: 91ef b43e 5714 573f 2985 8cbd 6697 423e
000001c0: 4e6d a03d 05f1 66bf 61de cb3c 7de4 3f3d
000001d0: e90a 413f 42d8 573f 3eee 25be 1bac debe
000001e0: 776d 1fbf 05c3 5f3e ce75 6f3d 59ae abbe
000001f0: f1ad 7abd 9f73 fe3d dc7e b83c 03fe 833c
00000200: d6f8 e5be 1da5 d73e 8772 80bd 15bd 953d
00000210: 6bc4 a03e 6820 a33e ed79 963c 5959 f33c
00000220: c0fd f4bd c38d 35bf 2b8c fbbd c9d4 233e
00000230: ad1c f43e 9638 6d3f c90e 0f3c 96d6 7a3e
00000240: 1b68 f73e c710 803d de91 a3bc c60a 0d3d
00000250: 2122 9bbe 0616 fd3d 4f21 bb3e 174b 423f
00000260: 4b88 bcba 0804 68be 313e 133e 04bb f1be
00000270: 057d 5bbb 9e90 833c a6ff 0c3f 312b fa3e
00000280: 4041 4f3d c3e1 57bd 7c1b 9abc b1b3 6a3d
00000290: 9347 a0bd e328 3b3d 1f03 3c3f 288a d13e
000002a0: 759d 9abd d54e b83e 49ac 853d 5200 ba3d
000002b0: 0685 29bd 2d32 243e 15e6 853e 6368 72bf
000002c0: 730d 8cbc bff5 023d faa6 60be 8acf 0ebf
000002d0: 3b4c 973a be0c 0fbe 0d8c 103f ac71 49bf
000002e0: 9f36 85bd 1a94 5fbe 67bf 4d3c ca4f 84bd
000002f0: 4e31 67bd 6e10 1fbd 6079 d43e 2bac 40bf
00000300: 43fc 083e 2c2d 2fbd e0b8 55be 9fa1 393d
00000310: 4dbd a3bd 52f8 e03a c768 7d3e c515 453e
00000320: e49f 38be ae84 84be d80a e2bc 2e51 48bd
00000330: 74f0 5f3f 74fb 03bf 30a9 063c 8b40 0d3e
00000340: 91fa 2a3e ff3b 91bd 22fa f1bc 8e1f 473c
00000350: 8fa9 443f d663 96be 5270 a8bc 7532 533c
00000360: 8134 e53e 9cfb a53d 3588 61bb 5266 1c3e
00000370: b125 63bf 289e 4e3f f646 bbbc 211a acbc
00000380: c429 e5bd f39b f53d 13db 913d e2b9 273d
00000390: 1880 73bf c241 1fbf e155 abbd 8425 943d
000003a0: 2d1a 033e 803c 8d3e eb12 9e3d f4ec b93d
000003b0: c5b8 55bf 0a8d 9bbe d367 e8bd a4fe 57bc
000003c0: f266 0d3f 500c 423f 4f1c 6fbc b9fa 2b3d
000003d0: a52d 373f 2d89 7a3f ed4d 4abd 99ee 83bc
000003e0: abdb 513f e393 d8be 34c3 04bc 86c1 b63e
000003f0: 8456 aa3d 1ba0 0ebe 7c57 85be 6142 0ebf
0.5513797 -0.20049202 -0.110848695 -0.04371047 0.35536242 -0.20750234 0.051046703 0.1974601
0.5959773 -0.07575416 -0.0499832 -0.18013945 -0.08082724 -0.14247897 0.037615847 -0.33008516
1.045399 0.26858294 -0.0148242265 0.16288711 -0.48339713 -0.043586947 -0.07128658 0.13148743
0.67248124 0.4395802 -0.041341178 0.26851174 -0.23661909 -0.16938761 -0.03669533 0.12798882
0.5768206 0.5304637 -0.093545005 0.11265548 -0.12888771 -0.15527996 -0.03155779 0.29478046
0.8677632 0.81204623 -0.07680399 0.05223683 0.23801422 0.012074346 0.027997943 0.123158894
-1.3555157 -0.13684179 0.15014257 -0.29008994 -0.05077048 -0.014023961 -0.18156832 0.2300165
0.053135734 -0.011894761 0.56744295 -0.5305219 0.0121646775 -0.012481361 0.0081174 0.2361098
-0.117654696 0.105186336 0.644443 -0.28314838 -0.011851619 -0.1545805 -0.18532024 -0.33691534
0.0490895 -0.15199968 0.61140627 0.07908001 -0.1061776 0.1290504 0.031970438 0.1178008
0.0022123707 0.069023475 0.871597 -0.17232262 -0.16916591 0.040335406 0.01686843 0.2868557
-0.03454652 -0.072826736 0.7951287 -0.07451823 -0.091438524 0.10251313 0.21386202 -0.39002016
0.029053196 0.0660442 0.44906455 0.7429697 -0.10989458 0.5962231 -0.020735228 0.065466285
0.42759156 0.32537076 -0.008400591 0.01895697 0.35339025 0.8401541 -0.06861336 0.19003066
0.07833348 -0.90211517 0.024886312 0.046848763 0.7540727 0.8431436 -0.16204163 -0.4349068
-0.62276405 0.21851738 0.058461957 -0.33531454 -0.06120104 0.12424397 0.022521429 0.016112333
-0.4491641 0.4211816 -0.06271844 0.07311455 0.31399855 0.31860662 0.018368686 0.02970569
-0.119624615 -0.70919436 -0.12282594 0.1599914 0.47678128 0.9266447 0.008731552 0.2449592
0.48321614 0.062532 -0.019967016 0.034434102 -0.30299476 0.12357716 0.3654885 0.7589583
-0.001438388 -0.22657788 0.14379193 -0.47212994 -0.0033491265 0.01606017 0.5507759 0.48861077
0.050599337 -0.052705538 -0.018811934 0.057300273 -0.07826152 0.04569329 0.7344226 0.40925717
-0.07549564 0.35997644 0.065270014 0.09082092 -0.041386627 0.16034766 0.261521 -0.9469053
-0.017096257 0.031972643 -0.21938697 -0.5578543 0.0011543104 -0.13969705 0.564637 -0.78689075
-0.06504559 -0.2183384 0.012557841 -0.06460531 -0.056443505 -0.038834028 0.41498852 -0.7526271
0.1337748 -0.04276769 -0.20871305 0.04532015 -0.07995091 0.0017163849 0.24747 0.19246586
-0.18029743 -0.25882477 -0.027593061 -0.048905544 0.8747628 -0.5155556 0.008219048 0.13794152
0.16697146 -0.070915215 -0.029538218 0.012153519 0.76821226 -0.29373044 -0.020561371 0.012890448
0.4476662 0.08104631 -0.003441346 0.15273407 -0.8872939 0.8071008 -0.022860985 -0.021008553
-0.11189607 0.119926356 0.07121863 0.040948756 -0.9511733 -0.62209713 -0.083659895 0.07233718
0.12802954 0.2758522 0.07718452 0.09078398 -0.8348506 -0.30381042 -0.11347928 -0.01318327
0.5523521 0.7580004 -0.014594152 0.041987155 0.71554023 0.97865564 -0.049390722 -0.016104983
0.8197581 -0.4230033 -0.008103181 0.35694522 0.08317283 -0.13928263 -0.26043308 -0.55570036

fc1.bias f4 [256]
00000000: ef3f afbf bc97 87bf bd16 66bf fa6f c0bf
00000010: e59f 26bf 24cd a9bf 640d d2bf 5de8 69bf
00000020: a8c3 59bf 1c55 b2bf 9dcd abbf 52a7 b6bf
00000030: 05b5 c9bf ffb3 44bf 0f4f 9cbf 8d07 d1bf
00000040: 230b 59bf 93b4 a7bf d201 e3bf b310 a8bf
00000050: fbeb c2bf 2327 cbbf 26cc c5bf bd34 cbbf
00000060: de64 37bf 6ace cfbf 16e2 d4bf 03b6 a13f
00000070: c840 b4bf 804b e9bf 7427 cebf 34e2 fdbf
00000080: f074 8fbe 02a5 83bf d129 b2bf 5767 31bf
00000090: 13e7 7fbf 1ea3 1fbf a0af d0bf a77d 9bbf
000000a0: 1715 90bf fd67 5cbf 0bd1 36bf 85e9 8fbf
000000b0: 1cb9 a7bf e301 a4bf 6c40 6fbf d795 b5bf
000000c0: 32cf cdbf ad8d 6cbf 90f3 9ebf 5035 8fbe
000000d0: 817a d3bf f2b4 efbf 7a9f dbbf 4206 dd3e
000000e0: a5f5 fcbf 9bea 21bf 04cc bbbf 347f c8bf
000000f0: 3448 c6bf de4d 6cbf f015 8dbf f970 acbf
00000100: b0ad 8bbf 66b2 f4bf 43c3 d3bf bb34 bdbf
00000110: e654 8bbf 39cd 32bd 4409 c6be a019 cabf
00000120: 5185 cdbf 106d aebf 82e6 10c0 ea57 82bf
00000130: cfe4 dcbf 8856 3e3f f3d3 aabf 9502 96bf
00000140: d4e5 90bf 0a1f b0bf e7cd cabf 5634 71bf
00000150: 92eb 43bf 8a0b a8bf 70e5 d9bf 136d a0bf
00000160: 7b24 6dbf 12be cbbf 33cb d6bf c720 18be
00000170: ca59 89bf a0cf 493c 1f28 08c0 0356 d2bf
00000180: d8da c1bf d0f0 bebf b8b8 debf da29 9fbe
00000190: b903 9fbf 8f97 c7be 99c3 c3bf 3dc4 c6be
000001a0: 8fa3 b0bf 2d43 df3d b15d 97bf 59c6 b8bf
000001b0: 32b4 d7bf c42b c6bf bb2c 99bf 4860 cbbf
000001c0: e6fd abbf 2482 95bf f133 663e ac1f 8dbf
000001d0: c1dd 59bf 8b1d a5bf 866c f1be 149b 9ebf
000001e0: 3eac 5fbf 5916 8bbf 2559 9abf 9bec c5bf
000001f0: a6d5 b2bf 2945 a4bf 08e6 97bf 6e2a 28bf
00000200: d098 15bf 4aef 133f 3196 dfbf 5a97 d6bf
00000210: a041 b9bf 0ee8 85bf 1870 b7bf ff5b a3bf
00000220: e2ea 9ebf fe33 babf fe93 c1bf 9174 f6bf
00000230: 3e99 6bbf edc3 dfbf 1c20 96bf 5d2d eabf
00000240: fca7 4bbf b59d ecbf 2826 bdbf 5785 bdbf
00000250: ff5b c0bf 2b3d cebf b314 c1bf 1534 aabf
00000260: 95ed 9fbf 319e b6bf 2200 91bf 6aec 4bbf
00000270: 22af 9abf 1f36 c4bf 2773 93bf 57ed 2dbf
00000280: 1dcf acbf 3588 f4be f719 a3bf 3b74 8fbf
00000290: 6fb8 55be bcac a1bf 78e8 a1bf c9d9 bbbf
000002a0: f93e 7ebf 3425 2ebf f5cd 9dbf d7ad 2e3f
000002b0: 9b54 e5bf 2145 dcbf ef1e f0bf 27e4 c1be
000002c0: 8798 85bf 7ef6 63bf 744f e5bf 1c4a 16bf
000002d0: cd8f aabe 10c6 9cbf 21a6 aabf 2871 cdbf
000002e0: 1712 afbf e1e8 8cbf c51c c8bf 256b 9abf
000002f0: 9a19 b1bf 2598 303f 3290 93bf 6e0a d1bf
00000300: a670 ddbf 48c3 9abf 4d55 b3bf c816 abbf
00000310: 38d2 b8bf 1f53 aabf 70ec a2bf a791 d83e
00000320: de05 01bf a4f1 a2bf 1a1d fdbf 11f6 bcbf
00000330: 9f0b c1bf 5b44 8cbf 4c93 d9bf 90d3 1c3d
00000340: 363a e73e 1ba5 40bf fe98 adbf 651d 3ebf
00000350: 47d0 a3bf 0b94 c0bf ff7c b4bf d61b 86bf
00000360: beb7 8cbe 950d 57bf 6c7e c1bf 2d55 d7bf
00000370: 005d a6bf 3b6b b4bf c5ea dbbf 5f6a 9fbf
00000380: 403a ddbe 8b73 c7bf 59db bbbf e08f 64bf
00000390: 17eb 93bf c061 0cbf f734 27bf c614 9ebf
000003a0: bb2b 07be e7d6 d4bf aefe 903e eaf5 b8bf
000003b0: 0c99 f1bf 7677 093f 038b afbf 8aa2 80bf
000003c0: fa4a 98bf 7fdf c3be 9172 86bf 73a7 d1bf
000003d0: c99a 8a3f fe28 bebf 67dd e0bf b58b 8fbf
000003e0: 3b37 bbbf 69a4 b7bf 0ce5 bebf 1c5a b6bf
000003f0: 5b9e b4bf 797f b1bf 7c2f b1bf b986 d9bf
-1.3691386 -1.0593181 -0.89878446 -1.5034173 -0.6508773 -1.3265729 -1.6410336 -0.91370183
-0.8506417 -1.3932223 -1.3422123 -1.4269812 -1.5758368 -0.7683715 -1.2211627 -1.6330429
-0.8478262 -1.3101982 -1.773493 -1.3130096 -1.5228266 -1.5871319 -1.5452926 -1.587547
-0.71638286 -1.6234868 -1.6631496 1.263367 -1.408227 -1.8226166 -1.610579 -1.9834657
-0.28018904 -1.0284731 -1.3919011 -0.6929831 -0.99961966 -0.6235827 -1.6303596 -1.2147721
-1.1256436 -0.86096174 -0.71412724 -1.124314 -1.3103366 -1.2813076 -0.93457675 -1.4186352
-1.6078856 -0.9240368 -1.2418079 -0.27970362 -1.652176 -1.8727095 -1.7158043 0.43168837
-1.9762465 -0.63248605 -1.4671636 -1.5663819 -1.5490785 -0.92306316 -1.102232 -1.3471977
-1.091238 -1.9116943 -1.6543964 -1.4781717 -1.0885284 -0.043652747 -0.38678944 -1.578907
-1.605631 -1.3627033 -2.264069 -1.0183079 -1.7257327 0.74350786 -1.3345932 -1.1719538
-1.1320138 -1.3759472 -1.5844086 -0.94220483 -0.76531327 -1.3128521 -1.7023144 -1.2533287
-0.9263379 -1.591738 -1.6780761 -0.14856254 -1.0730526 0.012317568 -2.1274488 -1.6432499
-1.5144911 -1.491724 -1.7400122 -0.31086618 -1.2423011 -0.38982818 -1.5294067 -0.38821593
-1.3799914 0.10901485 -1.1825467 -1.4435531 -1.6851866 -1.5482106 -1.1966776 -1.5888758
-1.3436859 -1.1680341 0.22480752 -1.102529 -0.85103995 -1.2899641 -0.4715311 -1.2391076
-0.87372196 -1.0866195 -1.2058455 -1.5462831 -1.397145 -1.2833606 -1.1867075 -0.6568974
-0.584363 0.57787 -1.746771 -1.6764939 -1.4473152 -1.0461442 -1.4331083 -1.276245
-1.241543 -1.4547117 -1.5123289 -1.9254323 -0.92030704 -1.7481667 -1.1728549 -1.8295094
-0.795532 -1.8485628 -1.4777269 -1.4806317 -1.5028075 -1.6112417 -1.5084442 -1.3297144
-1.2494379 -1.4267026 -1.1328166 -0.79657614 -1.2084696 -1.5329016 -1.1519517 -0.67940277
-1.3500706 -0.47760168 -1.2742299 -1.1207346 -0.20871137 -1.2630839 -1.2649069 -1.4675838
-0.9931484 -0.6802552 -1.2328478 0.6823401 -1.7916445 -1.7208596 -1.875944 -0.3786938
-1.0437173 -0.8904799 -1.7914872 -0.5870683 -0.33312836 -1.2247944 -1.3331949 -1.6050158
-1.3677396 -1.1008569 -1.563378 -1.2063948 -1.3835938 0.68982154 -1.152838 -1.6331308
-1.7300003 -1.2090845 -1.4010407 -1.3366327 -1.4439154 -1.3306617 -1.2728405 0.42298624
-0.5039958 -1.2729993 -1.9774506 -1.4762594 -1.5081671 -1.095836 -1.6998076 0.0382877
0.451616 -0.7525193 -1.3562315 -0.742636 -1.2797936 -1.5045179 -1.4100646 -1.0477245
-0.27483934 -0.840051 -1.5116706 -1.6822869 -1.2997131 -1.4095224 -1.7181021 -1.2454337
-0.43208504 -1.5582136 -1.4676315 -0.89282036 -1.1556119 -0.54836655 -0.6531519 -1.235009
-0.13200276 -1.6628083 0.28319305 -1.4450047 -1.8874831 0.5369791 -1.3714298 -1.0049603
-1.1897881 -0.3825645 -1.0503713 -1.6379226 1.0828487 -1.485626 -1.7567567 -1.121451
-1.462623 -1.4347049 -1.491365 -1.4246249 -1.4110826 -1.3867027 -1.3842616 -1.6994239

fc2.weight f4 [256, 256]
00000000: 1277 0abd 47af 803e e968 d63c 73ad 9dbc
00000010: 7f75 603d d506 01be b01a 5cbd 5e57 8c3d
00000020: 2359 6cbd 0cc9 803c a75c 02bd 9821 97bd
00000030: 8dc2 163e b6a3 063e c478 503d 1213 663d
00000040: 57a1 093e e37c 6ebc 4275 363a d12f 323d
00000050: c7d8 883a eacd 603c 9a59 e8bc fdc1 79bd
00000060: d267 d73d 4669 113e 09cf 6f3d 3084 07be
00000070: 2ca9 803d 61c7 4d3c c0a8 e4bd 5f9f 2fbd
00000080: 49f6 2bbd 99d0 be3d b22b d13d d948 083e
00000090: 6832 523e a87a 913d 461c a2bd 2c85 ce3d
000000a0: 2a42 c1bc 8a6f 2dbe 3639 e4bd a9e8 c53d
000000b0: 0ba6 943d b043 bebd 924c 503e d0c5 433d
000000c0: 141c 0cbe 16b4 8c3d e6c4 17be 1766 a6bd
000000d0: 1ae3 283e cdaf c53d b51c b23d fa8f 21bd
000000e0: 5d2e 0bbe 873a f13d 2612 853d 8abb 64be
000000f0: de42 123d ba0e 403e 41e0 d03d 1129 853e
00000100: 76ac 3dbd 83fb 58bc 060f e13d a414 a33c
00000110: fed9 3cbe d89b ddbc bfbe 00be 5466 113e
00000120: 101c 2a3e 52be f3ba 6615 83bd 1a71 2dba
00000130: ad01 6abd c38a 92bc 396f 15bb 7bad 72bd
00000140: adb6 b13d 8a98 563e 0f49 a53c db1d 813d
00000150: 7b33 d8bc d710 383d 0837 f13d 7eef 043c
00000160: 13e1 6aba 2f2f 093d 39c2 063e 7752 b83c
00000170: 75f2 253d 073e 1a3c 381b d1bc 4a32 c7bc
00000180: 9a04 f0bd 0b23 7c3d ce07 363e 246d 10be
00000190: a309 50bd e5fa 76bd 1c3e bc3d 7e1f ca3d
000001a0: 7307 243d 4fea f5bb e8c8 973d 33cc 80bd
000001b0: b395 f13d a878 d43d 75c8 4a3c 4e68 06bd
000001c0: 16a2 da3d 31a4 923d 6674 85bd b51d 4b3e
000001d0: 74e0 a9bb ff27 0cbd af9d 123e c91a 1c3d
000001e0: 0d42 d33c 9712 1e3e 1096 903c ed53 093e
000001f0: 24e7 04bd d34d 423e bf62 bd3d 0f62 0dbd
00000200: 06d1 21be 36d7 e9bd 7574 df3d ab47 883e
00000210: a92a 82bc 45ee 363e caba 82bd c397 2f3e
00000220: 72fd 5c3d 06a0 163e e4d1 113e 10c2 86bb
00000230: f1a2 22bd 26ef 963e 67c0 163d 7a61 8dbc
00000240: 0ce2 173e 26d6 53bd 0bbf cd3e f49b 7e3d
00000250: 70b4 563e 54a6 86bc 18ac ca3d 0bd5 fc3d
00000260: c4aa 5b3e aba8 9e3d a2da 0a3e e341 82bc
00000270: 4860 663d bbbe 95bd 02ba 19be 6dba af3d
00000280: 7a2e b33d 1696 823e 7157 063e df97 3e3e
00000290: ca9a 25bc 92d8 fabc eb64 91bc a9c3 3c3e
000002a0: 4793 39bd f4c7 1dbd 3c0a b2bd fb43 203d
000002b0: b35e 093d c790 453e 8f51 293d 9da3 1b3d
000002c0: 575a 013e a177 683d c070 cfbd 661d 4e3d
000002d0: efed 503b e39a 08be 72fd 503e 07f2 e13d
000002e0: 274c 6e3d 2432 bcbc 3928 483e 39ed a0bd
000002f0: 60dc 073e 6c26 0abe df95 68bd 1f3a 9bbd
00000300: c315 fb3c 79f9 c8bc aecb 923c 37a6 163e
00000310: f0bc e93c 886d 193d b7fe 3dbd 1156 b1bd
00000320: 14fc 9b3d a8fc 1abd 438d 823e 4395 093d
00000330: aa49 963d 0b5a 8f3d b0ef b33d 21de 19be
00000340: bb46 f7bd 1ca7 8b3d 4f3e 3d3e d629 47bd
00000350: 6d02 9e3d 9848 28bd 02a4 573d 10d7 edbd
00000360: 0eb7 7dbd 74dc b5bc c920 77be 65dc 2c3e
00000370: 5ded ee3c 853a cdbd a952 26bc 136f 2f3d
00000380: dae8 dabd 1b9c 2c3d 907e b83c a936 03be
00000390: b53b 8c3e 06e0 1ebd f5c7 0e3e b010 863c
000003a0: d5c0 be3b e9d2 043d fd94 efbc 918e ff3c
000003b0: 9040 a53d c627 fabc 8728 3abd c349 713e
000003c0: 8436 e53c 3866 b6bd 95f9 f73d d91a 453d
000003d0: f0a4 633d 1079 af3c 9716 5f3e 5c20 f3bd
000003e0: 7884 30bd a2b5 0b3e 9afd 0c3e 8f97 e8bd
000003f0: 6e4a f33b 7815 31be fd56 603d e3cb 1d3e
-0.03380496 0.25133726 0.026173072 -0.019247746 0.054799553 -0.12600262 -0.05373639 0.068526015
-0.057702195 0.015720867 -0.03182664 -0.073794544 0.14722653 0.13148388 0.05089642 0.05617053
0.13440453 -0.0145561425 0.0006960222 0.043502633 0.0010440581 0.013720969 -0.028363038 -0.060976017
0.10517849 0.14200315 0.058547053 -0.1323402 0.06282267 0.012559743 -0.11164999 -0.042876597
-0.041982923 0.093171306 0.10213412 0.13309039 0.20527041 0.07103473 -0.07915549 0.10083994
-0.02359112 -0.1693708 -0.111437246 0.09663517 0.07258233 -0.09290254 0.2034171 0.04779607
-0.13682586 0.06870286 -0.14821205 -0.08124941 0.16492882 0.09652672 0.08696882 -0.039443947
-0.13591905 0.11778741 0.06497602 -0.22337165 0.0357083 0.18755618 0.10199023 0.26007894
-0.04630705 -0.013243559 0.109891936 0.019907303 -0.18442532 -0.027051851 -0.12572764 0.14199191
0.16612267 -0.0018596149 -0.06400566 -0.000661628 -0.057130504 -0.017888432 -0.002280189 -0.059247475
0.08677421 0.20956627 0.020176439 0.063045226 -0.026391735 0.044937935 0.117780745 0.00811374
-0.000895993 0.033492263 0.13160028 0.02250026 0.04051443 0.0094142025 -0.025525674 -0.024315972
-0.11719628 0.061556857 0.17776415 -0.14104134 -0.05079044 -0.060297865 0.09191534 0.09869288
0.040046167 -0.0075047384 0.07411367 -0.06288948 0.11796131 0.10374576 0.012376894 -0.032814316
0.10675447 0.07160223 -0.06516342 0.19835551 -0.0051842276 -0.03421783 0.14317964 0.03811148
0.025788331 0.15436779 0.01764968 0.13410921 -0.032446995 0.18975 0.0924735 -0.034517344
-0.15802392 -0.11418001 0.10910884 0.26617178 -0.015889483 0.1786433 -0.063832834 0.17147736
0.05395264 0.14709482 0.14240223 -0.0041124895 -0.039706174 0.2947933 0.036804583 -0.017258395
0.14832324 -0.0517179 0.40184817 0.062160447 0.20967269 -0.016436733 0.098961055 0.12345322
0.2145186 0.077470146 0.13559964 -0.015900558 0.056244165 -0.073117696 -0.15012363 0.0858048
0.08749099 0.2550513 0.13119294 0.18612622 -0.010107705 -0.030620847 -0.017748317 0.18434013
-0.04530647 -0.03852077 -0.08693358 0.03912733 0.033537578 0.1929351 0.041337546 0.03799783
0.12632118 0.056754712 -0.10128927 0.050321005 0.00318801 -0.13340335 0.20409182 0.11032491
0.058178093 -0.022973128 0.19546594 -0.07857747 0.1326766 -0.1349122 -0.056783553 -0.07579445
0.030650025 -0.02453302 0.017919388 0.14711843 0.028532475 0.037457973 -0.046385493 -0.08658994
0.076164395 -0.037838608 0.254984 0.033589613 0.07338269 0.06999596 0.08785951 -0.15026142
-0.12074038 0.06818983 0.184808 -0.048623882 0.077153064 -0.041084856 0.052646644 -0.116132855
-0.061942153 -0.022199847 -0.241336 0.16880949 0.029165918 -0.10020927 -0.010151544 0.042830538
-0.10688944 0.04214106 0.022521287 -0.1281382 0.27389303 -0.038787864 0.13943465 0.01636538
0.005821327 0.032427702 -0.029245848 0.03119591 0.08068955 -0.030536544 -0.045448806 0.23563294
0.027980097 -0.089062154 0.12108151 0.048121307 0.05557722 0.021420032 0.21785961 -0.118714064
-0.043095082 0.13643506 0.13768616 -0.113570325 0.007424644 -0.17293346 0.05477046 0.15409808

fc2.bias f4 [256]
00000000: c782 0dbf 6df4 bfbe 67b6 33bf 45d5 9cbe
00000010: 154f a4be 947d e6be a7ee 18bf 1057 a6be
00000020: ba96 01bf e3b4 06bf 07fb acbe 24c2 a8be
00000030: 2b3c 9ebe 98b3 fcbe 95d4 18bf fd44 fdbe
00000040: d1f8 d8be e6c7 dbbe d9df 23bf 3f54 a0be
00000050: 7022 dcbe 7c79 b6be 49ff 01bf 0537 0cbf
00000060: bf48 a9be 6518 0abf 9ebb d7be ec2a 14bf
00000070: 4d3b 0abf 9f96 f0be e5be 9bbe a082 aebe
00000080: 0137 b1be 8dca 91be edb5 00bf 5d2f eebe
00000090: 7dc5 b9be 02d6 24bf dbc2 6abc 1474 00bf
000000a0: 10fc f4be d6c1 2dbf bd48 84be b8b0 fcbe
000000b0: 6db9 2cbf a1b6 f6be 0379 10bf 0c1a 04bf
000000c0: f56e 19bf 1fb6 14bf a71a 00bf 23c1 f0be
000000d0: 61d5 02bf 9b95 0abf c84b 18bf 5b0e debe
000000e0: 9da7 16bf 1fd9 debe 7daf 1ebf d3b0 fdbe
000000f0: 954b 91be 3296 e0be 5eea 01bf 6fe9 e0be
00000100: 0684 dfbe 090c bcbe ab40 85be 03d7 17bf
00000110: bbe8 84be 6b5e 93be 1679 96be 3a0e 3dbf
00000120: 9907 14bf bbed 03bf 281a 1cbf 0e30 2bbf
00000130: 415a 91bf 70c3 0abf e029 98be 0e44 f0be
00000140: 85e2 0cbf e2c6 bdbe b0d8 11bf a17b d1be
00000150: fc28 dfbe 14c7 aebe e3e5 e7be 0e02 1dbf
00000160: 26ce eebe d8f1 90be a410 adbe c796 ecbe
00000170: 1f6f 84be 9c51 0cbf 466c 06bf 1436 a3be
00000180: 3da4 06bf 9672 09bf 8272 f1be feeb 83be
00000190: 1a4b ccbe 7020 ecbe 3f66 73be 72a3 02bf
000001a0: 53ec febe 68f8 05bf ec6a f1be a765 0abf
000001b0: f859 6ebe 5d46 c4be c02e 01bf e38a 12bf
000001c0: bca9 9dbe fc8f d6be 420c e9be fa9f c1be
000001d0: ce98 033f 6609 09bf a30a 14bf a6db 4d3d
000001e0: b18d cabe cdad ebbe 71b1 0dbf 509e d1be
000001f0: 4df6 03bf 4346 b9be d56d 1cbf 4b2d dfbe
00000200: d38d e4be acd5 81be 2d18 08bf 49e3 f3be
00000210: e05a f2be 4966 17bf 209f 8fbe 74d5 d3be
00000220: 4451 2abf c22c 23bf ed18 23bf 5ed3 06bf
00000230: 9035 ebbe e3e9 e9be a402 c6be 01ea bebe
00000240: 1912 0abe 6343 eabe cbb7 f1be 6166 0ebf
00000250: b4d6 25bf 05b1 bcbe e25e e7be 35d5 36bf
00000260: 0bec 2cbf 7dc0 ddbe d59d 9fbe 333a 26bf
00000270: a937 1ebf 3b9f c8be 5b4c 20bf 300e d2be
00000280: eac5 cdbe 9982 edbe 8a1e ecbe b13a e6be
00000290: 0814 f3be 27ea adbe 9fe3 dbbe 8b58 03bf
000002a0: 0796 1abf aff0 d4be e899 21bf 4699 a2be
000002b0: 5b3c b0be f222 eabe 3d62 19bf 6e88 a4be
000002c0: 528c a8be e148 ed3e 7a7d dcbe f5ba bebe
000002d0: 06a6 80be 3ef6 99be 3c06 edbe 2005 ebbe
000002e0: 0ced 1cbf 940f b1be 997f 14bf a228 5ebf
000002f0: 4e1f 10bf 3781 04be 8bd5 03bf 3a9a c4be
00000300: 2632 a7be d052 14bf 1894 cfbe 7685 01bf
00000310: d2d2 a4be d68c c8be 361d 8fbe 17d6 21bf
00000320: 712a bfbe fa27 fbbe 5124 9fbe 2e15 fdbe
00000330: fdcc f2be 73cb 01bf c546 aebe c79b cfbe
00000340: 894e d1be d3dd afbe 5d5f ccbe a56e 00bf
00000350: 2aa1 a6be 4ea0 c0be 11c0 f5be 9d26 c2be
00000360: ba55 9ebe 6f12 14bf 3f93 cabe 5567 b1be
00000370: 3f53 0dbf 8199 05bf c766 1fbf 43ea f0be
00000380: edc6 83be c0e1 0fbf 550b febe 2350 74be
00000390: 4085 83be 1097 07bf 6a71 4fbf 997f 69be
000003a0: 9fc4 fcbe 7711 c3be 437c 0bbf c886 fdbe
000003b0: caf2 f4be ae9e a7be 9078 cebe 8d46 a2bf
000003c0: 9259 f8be 5d9d edbe 4795 a0be 73b3 b9be
000003d0: 6d69 a2be c8e0 09bf 6662 b3be 412e 0cbf
000003e0: c991 9dbe 5d64 2cbf f632 3bbf 3f43 03bf
000003f0: 949e 73be ae8b efbe c0d1 f3be 5f1e cbbe
-0.55277675 -0.3749117 -0.702002 -0.30631462 -0.32091585 -0.45017684 -0.59739155 -0.32488298
-0.50620615 -0.5261976 -0.3378527 -0.32960618 -0.3090528 -0.4935577 -0.59699374 -0.49466696
-0.42377332 -0.42925948 -0.6401344 -0.31314275 -0.42995024 -0.3563956 -0.5078016 -0.54771453
-0.33063313 -0.53943473 -0.42135328 -0.57877994 -0.53996736 -0.46989915 -0.30419078 -0.34084034
-0.34612277 -0.28474846 -0.50277597 -0.4652051 -0.36283484 -0.6438905 -0.014328684 -0.5017712
-0.47848558 -0.67873895 -0.25836745 -0.49353576 -0.6747044 -0.4818621 -0.5643465 -0.51602244
-0.5993493 -0.58090395 -0.5004067 -0.47022352 -0.5110684 -0.5413453 -0.59490633 -0.43370327
-0.5884951 -0.43525025 -0.61986524 -0.4954897 -0.28377977 -0.4386459 -0.5074824 -0.43928096
-0.43655413 -0.36727932 -0.260259 -0.59312457 -0.2595881 -0.28782973 -0.29389256 -0.73849833
-0.57824093 -0.5153462 -0.6097741 -0.668702 -1.1355668 -0.54204464 -0.29719448 -0.46926922
-0.5503314 -0.37065798 -0.56971264 -0.40914634 -0.43585956 -0.3413626 -0.45292577 -0.6133126
-0.46641654 -0.28309512 -0.33801758 -0.46208784 -0.2586603 -0.54812026 -0.5250896 -0.31877196
-0.5259436 -0.5369047 -0.47157675 -0.25765985 -0.39901048 -0.46118498 -0.23769473 -0.5103065
-0.49789676 -0.5233216 -0.47151887 -0.5406136 -0.23276508 -0.38334933 -0.5046196 -0.57243174
-0.3079356 -0.41906726 -0.45517164 -0.37817365 0.51405036 -0.53529966 -0.5782873 0.0502583
-0.39561227 -0.46031037 -0.5534888 -0.40941095 -0.515477 -0.36186418 -0.6110509 -0.43589243
-0.44639453 -0.2535833 -0.5316189 -0.47634342 -0.47334957 -0.5914045 -0.2805109 -0.4137379
-0.6653025 -0.6374017 -0.6370991 -0.5266627 -0.45939302 -0.45686254 -0.3867389 -0.37287906
-0.13483466 -0.45754537 -0.47210535 -0.5562497 -0.64780736 -0.36853805 -0.45189577 -0.7141908
-0.67547673 -0.4331092 -0.31175104 -0.64932555 -0.6180368 -0.39183983 -0.6261651 -0.4102645
-0.4019006 -0.463887 -0.4611705 -0.44966653 -0.4747622 -0.33967707 -0.429471 -0.5130698
-0.60385174 -0.41589877 -0.6312547 -0.31757563 -0.34421048 -0.45729786 -0.59915525 -0.32135338
-0.32919556 0.46344665 -0.4306448 -0.37252012 -0.25126666 -0.3007068 -0.4629382 -0.45902348
-0.61299205 -0.34582198 -0.580072 -0.8678075 -0.5629777 -0.12939917 -0.51497716 -0.38398916
-0.32655448 -0.5793886 -0.40542674 -0.5059427 -0.32192093 -0.3916995 -0.27951974 -0.632173
-0.37337068 -0.49053937 -0.31082395 -0.4943022 -0.4742202 -0.50701064 -0.34038368 -0.40548536
-0.4088023 -0.34348926 -0.39916506 -0.5016883 -0.32544833 -0.37622303 -0.47998098 -0.37920085
-0.3092478 -0.5784063 -0.39565465 -0.3464915 -0.5520515 -0.52187353 -0.622662 -0.47053728
-0.25737706 -0.5620384 -0.4961802 -0.23858695 -0.256876 -0.5296488 -0.8103243 -0.22802581
-0.4936876 -0.38099262 -0.54486483 -0.49516892 -0.47841483 -0.3273825 -0.40326357 -1.267778
-0.48505837 -0.4640912 -0.3136389 -0.3626972 -0.31721058 -0.53858614 -0.3503601 -0.5475808
-0.30775288 -0.6734064 -0.73124635 -0.51274484 -0.23790962 -0.46786255 -0.47620964 -0.3967161

value.weight f4 [1, 256]
00000000: ebb2 053d 1ce9 3bbc e652 17bd 4454 90bc
00000010: 8e6d 91bb a00c 763c b267 b03c 0b30 b13c
00000020: 8f93 a8bc a5ca e7bb bd4d aebc 0ff3 dfbc
00000030: d301 f53c 76eb a5bc 58fe 47bc f80d c43c
00000040: d491 35bd 97ec 9a3c b19d f6bc 727f bcbc
00000050: b898 37bc 3b42 133d 9df8 1cbd 493e e1bc
00000060: 04cb 2fbc eee3 88b9 0c82 4e3c 04fd ab3b
00000070: d693 15bb 945f 333c 8893 a7bb 7926 e7ba
00000080: 6851 96bc 52ee 12bc ce69 42bc 3133 b6bc
00000090: c2aa 783d 6d33 c1bc ea0b a03c 8910 133c
000000a0: bc69 58bc dab8 bfb9 baf1 e8bb 8752 70bc
000000b0: c8cc dc3c 73f1 46bb 8977 11bc c25a 343b
000000c0: 5138 9f3c e79d 77bc f867 73bc ef84 fe3c
000000d0: 1b39 e7bb b333 12bb b596 0fbb e16d d03c
000000e0: e282 9bba 56fb 393d 6444 d2bc 2de9 d83b
000000f0: e983 923c e5e4 0dbc 5cd9 64bc b381 d13b
00000100: 69ad 8d3d ee31 96bc 3554 d23c abcf 0c3d
00000110: 3287 eb3b 6364 303d b36e daba 658c bebc
00000120: 83ef 583a 68bc b03b 7d01 2bbd 8fc6 1bbc
00000130: bce2 f2ba b8b8 4d3c b7a5 083c 43f7 16bc
00000140: 6ab2 2bba b1be 70bc 88b3 a1bb 28fb 353d
00000150: ec9e 13bc a6f6 3cbb 90a9 65bc 11b9 59bc
00000160: 3128 39bb 9b98 3cbd 9c9a 763d c94b 123d
00000170: cc01 4eba fc68 813c 8a3a 27bc f9ca 313b
00000180: 0577 c4bc 09ac 0abd 3614 d03c c1f6 aa3c
00000190: 2ce8 bbbc 8211 ec3c ba28 14ba abac cebc
000001a0: 9360 723c 7081 67bc 9b5e cb3c f5b9 8abc
000001b0: 96e1 dbba 49c3 17bd 68eb 1d3c 27f7 373d
000001c0: 16de 1239 826a 57bc a120 13bc 7075 12bc
000001d0: f613 183d 834b 99bc 88aa 84bb 4862 a0bc
000001e0: 4f8f 1dbc b024 033b 0229 903b 0646 04bc
000001f0: 748a 1ebd 5ea5 43bd d7c0 553b f5d2 98bc
00000200: 6bf5 c23c 9fef 0c3b 45ec 583d b3a3 35bc
00000210: 8d35 babb 2568 e9bc 9e7e 86bc d71b b63b
00000220: 5269 a43b 4e95 113c 80bd eb3a 44de 25bb
00000230: 980c ddbc 5e6e 04bc 796a 533c c56b 30bc
00000240: 29c1 0eba 36d1 bebb b0ae 04bd 3862 4ebc
00000250: 94f6 f7bc 959c e4bc b81c 3dbb e425 49bb
00000260: b029 0bbb 3947 8dbc ecce 333c 8b20 ac3d
00000270: 41f1 61bc 6cf3 d9bc ad9f 5a3c 0491 15bd
00000280: 03fc ce3c 7ba6 55bb 148e 1bba 60e3 5c3b
00000290: 0809 c539 b05e 483c e61e 74bc ca41 a5b9
000002a0: 3326 77bd 18cc 2a3d ccaa 603c 3a44 793c
000002b0: 8fdc c8b9 40c7 253c 6f60 0d3c 83ee 163c
000002c0: 5de2 043d 133e 693c 1955 97bc 8bcf 473c
000002d0: a9d9 0ebd 398b d03c 6a39 ed3b 1ac8 04bd
000002e0: 4fb1 b63c a898 67ba 6ca3 83bc 09f1 18bc
000002f0: 4e62 a9bc cc12 b2bc c967 82bc cda5 c4ba
00000300: 6bcc 4cbc ab87 493b ad92 bcbc 9d63 3f3d
00000310: aa10 1a3b 7d10 203d 2644 e33c d46b ea3c
00000320: 0633 f03c 7286 f2bb 6e75 a83c 7c17 0a3d
00000330: 8c5b 693b 7489 ab3a 4a4c e53a d6f9 0bbc
00000340: a928 1b3d 3660 c3bc 2daa 68ba bdbb 563c
00000350: b14f 3b3d 5aff 0e3d 68b3 b93b efe6 5cbd
00000360: 0d4c a2bb 3bc1 9fbc 66f3 d1bb 4953 1b3b
00000370: 5b97 053c d42c d8bc 6908 ffba a410 44bc
00000380: ee1d 6a3d 417e 3ebb 7980 843b 8ed7 a93c
00000390: 423f 01bd c40d ccbc 75fb e0bc 3918 753b
000003a0: ea29 203d dd33 40bc 0834 95bb 8d72 80ba
000003b0: 6bef bf3c b432 5f3c 17b2 82bc e6ea 8a3b
000003c0: 9010 92bb 9185 1cbd e5af f4bb 8298 be3c
000003d0: 5cbe 09bd 4efc 2cbd 09de 193c 9f91 8dbc
000003e0: f24e 033b 967a 92bc 51c7 b33c e48f 9cbc
000003f0: 5258 8fbc 4f6a 1e3b 2234 86bc e41b 1c3d
0.032641333 -0.011469152 -0.036944292 -0.017618306 -0.0044381088 0.0150176585 0.02153382 0.021629354
-0.020578174 -0.0070737177 -0.021277303 -0.027337579 0.029908096 -0.020253878 -0.012206636 0.023932442
-0.044328526 0.018911643 -0.03010449 -0.02300999 -0.011205845 0.035951834 -0.038323034 -0.02749552
-0.010729555 -0.00026109762 0.012604248 0.0052486677 -0.0022823713 0.010948081 -0.0051140226 -0.0017635367
-0.018349364 -0.008967953 -0.011866046 -0.022241207 0.060709722 -0.023584092 0.019536931 0.00897611
-0.013208803 -0.00036568084 -0.007108894 -0.014668114 0.026953116 -0.0030356317 -0.008878597 0.0027519916
0.019436033 -0.01511333 -0.014856331 0.031069247 -0.007056368 -0.0022308647 -0.0021909897 0.02544302
-0.0011864568 0.04540571 -0.025667377 0.0066195936 0.017885165 -0.00866053 -0.013967838 0.006393635
0.06917841 -0.018334355 0.025674919 0.034377735 0.0071877474 0.043064486 -0.0016665071 -0.023260305
0.0008275436 0.0053935535 -0.041749466 -0.009507789 -0.0018530707 0.012556247 0.008340291 -0.009214225
-0.0006549718 -0.014693902 -0.004934732 0.044428974 -0.009010058 -0.0028833537 -0.014017478 -0.013288752
-0.0028252716 -0.046043973 0.06020604 0.035716806 -0.0007858544 0.01579713 -0.010206828 0.0027129038
-0.023982534 -0.03385547 0.025400262 0.020869615 -0.022937857 0.028816942 -0.00056518207 -0.025228819
0.014793533 -0.014129981 0.024825385 -0.016934374 -0.0016775604 -0.037051473 0.009638645 0.044913437
0.00014006378 -0.013147952 -0.008979947 -0.008939132 0.03712841 -0.018712765 -0.004048649 -0.019578114
-0.009616687 0.002001088 0.0043994198 -0.0080733355 -0.038706258 -0.04776513 0.0032616162 -0.01865528
0.023798665 0.002150513 0.0529597 -0.011086392 -0.0056826533 -0.028492043 -0.016417798 0.005557518
0.005017438 0.008885695 0.0017985553 -0.0025309483 -0.026983544 -0.008082954 0.012903803 -0.010767882
-0.0005445653 -0.0058232797 -0.032393157 -0.012596659 -0.030268945 -0.027906695 -0.002885623 -0.003069275
-0.0021234564 -0.017245876 0.010974627 0.084046446 -0.01379043 -0.02660533 0.013343734 -0.03651525
0.025266653 -0.003260045 -0.0005933952 0.0033704862 0.00037581497 0.0122296065 -0.014899945 -0.0003152027
-0.060339164 0.041698545 0.013712596 0.01521402 -0.00038311302 0.010118306 0.008628949 0.009212139
0.03244244 0.014235991 -0.018473195 0.012195478 -0.034875546 0.025457012 0.0072395103 -0.032417394
0.022301344 -0.0008834698 -0.016069137 -0.009334811 -0.020676758 -0.021737479 -0.01591863 -0.0015003026
-0.012499909 0.003075103 -0.02301916 0.046725858 0.0023508468 0.039078224 0.027742457 0.02861587
0.029321205 -0.007401281 0.020563807 0.033713803 0.0035607545 0.0013087229 0.0017494049 -0.008543452
0.037880573 -0.023849588 -0.0008875456 0.013106284 0.045730297 0.03491149 0.005667139 -0.053931173
-0.0049529136 -0.01950132 -0.006407189 0.0023700765 0.008153762 -0.026388563 -0.0019457462 -0.011966858
0.05715745 -0.0029066952 0.0040436354 0.020732667 -0.031554468 -0.024908908 -0.027463654 0.003739847
0.039102472 -0.011731115 -0.0045533217 -0.0009799764 0.023429593 0.013622928 -0.01595406 0.004239428
-0.004457541 -0.038213316 -0.0074672573 0.02326608 -0.033628806 -0.042232804 0.009391316 -0.017281352
0.0020036069 -0.01788072 0.021945627 -0.019111581 -0.01749817 0.0024172252 -0.01638228 0.038112536
