agent_1_actor_checkpoint.pth (torch_old, 291854 bytes, 6 tensors)

fc1.weight f4 [256, 24]
00000000: 08f9 6e3d 392d 11be aebf 06bd 1312 52bd
00000010: 7abe d8bc 6814 f13c 2d2c ed3c 8164 9bbd
00000020: 8774 1c3d 7995 43be c701 673d 14dc 7f3d
00000030: a5b0 c43d cc09 b33c 54a7 043d fd62 8b3d
00000040: 828c a53c 8708 4ebd a609 d23b 5f1f 453e
00000050: 6b9a 133e 33dc f6bd 2c3c 6ebd d75b 2f3e
00000060: 1bff 3dbe 3097 353e 0ba6 523d e8b7 cb3d
00000070: 9403 1cbd 8f6b d73d f0c6 6fbc 938a 91bb
00000080: 5270 4bbd e62c 0b3e 1888 763c a5be afbc
00000090: 949e d73d f439 ea3d dc1c 653c 494b 3abd
000000a0: e5dc cbbd ba5a 103e 0397 933d 1f64 e1bd
000000b0: 273d 3e3e 538c 4f3e c28c 63bc 182a 17bd
000000c0: 54db f43d a714 393d 4ae7 41bd 436b 6e3d
000000d0: e603 83bd 41b8 3f3d 1cd4 bd3c a11f 353d
000000e0: a588 cf3d a6dd ab3c f03d 13bd b1b7 7cbd
000000f0: aaff f1bd 9ea3 8f3d a6ea 62bd 9f6a 1fbe
00000100: 1b69 b33d a97e ba3d f8b5 083b ed84 adbd
00000110: 53c9 b3bd d670 cdbc 1fd7 e4bb 76dc 60bd
00000120: f7bb 593d d51b 0bbe 727e 1f3d 42b9 f0bd
00000130: 4e6a 94bd b36a e83d 0ab3 773d 9489 9cbd
00000140: de21 d73d 1c4f ae38 58f2 563c ca1f 1bbc
00000150: 2c57 01bd c330 403c 3f15 613d bb3c c8bc
00000160: 956c 0d3e 8091 2fbd 857e d73c 6c0e 923b
00000170: efac 4bbd 78ac 003e b262 65bc fd47 ddbc
00000180: 035a 84bc ff6b 073e b4a4 833c 2601 893d
00000190: 2c57 513d 391d a23d bf08 803b 08cc ff3d
000001a0: 7b67 5bbe adf5 633d 7287 91bc f9e9 953d
000001b0: a1fa 5abc c25a 563e e6ac 123d 155b ad3d
000001c0: 8b80 ddbd 5b2e 273c ec2d f93b dd9d 343d
000001d0: 9f2c 703d 2a2b cfbd 6e86 aa3c 1578 69bc
000001e0: 8002 743c 9865 1cbe bbb8 74bd 5b83 50bd
000001f0: 8c02 5bbd d775 113d a8a7 9e3c 5406 0e3c
00000200: b40a a7bd f764 4dbe cc82 83bc 5412 bebc
00000210: 004e 063e 84f3 933d b203 8b3a e8da 2b3d
00000220: 90ac 033c fd49 3abe 4794 3a3d 27f4 b5ba
00000230: eb1c 313e 55fa a03e 66aa 803d cee9 99bd
00000240: f7dd 1b3e 7b94 c03d 0adf 8f3d 0c35 023c
00000250: 22aa 09be c87d 12bc 4e94 ab3b bec1 b1bc
00000260: 5ec7 0a3e 446f 133e 56b3 043d ba36 1a3c
00000270: 1fda 3a3d b3ef c83c 6cc5 9f3c 90bd d03c
00000280: d450 063e fe9c e33d bba8 bf3d 6852 f83d
00000290: a651 833d 7285 adbd 3f9c b03d 60db 043e
000002a0: 0517 353e 7407 40be d514 c23d c8af c3bd
000002b0: 5d93 8d3e 6e3c be3d 23b9 7a3d 1dd5 33bd
000002c0: 64a1 0a3e 01fd babd fe74 8abc 036e 98bd
000002d0: 5ba7 2c3e 7c4c 023d 01a4 323d d4b6 15be
000002e0: 20ed 2d3e d10a f7bd a51c 653c f93a 00bd
000002f0: 0ad7 1e3d a069 cc3d b8fc 9e3b 71a5 243c
00000300: 602e 3e3d 7fb7 fe3d c889 14bd 90e3 3abe
00000310: c63f 653c 0f3f 68be 26a2 14bd 85af c8bd
00000320: b321 323e 04f3 183e 6f20 fabc 0ebf b6bd
00000330: 7b2b f13d dee4 81bd 705f e83c fa88 b1bd
00000340: 39d4 a23d f966 c23d dea7 5cbb 8f82 45be
00000350: 1501 543e bfe3 ba3d c7d2 32bd f19b 38be
00000360: dff7 89bc 30ea 2fbe e29e 58bd c790 953d
00000370: 74a8 da3c 6cde 88be c85a 2b3d c1cd 6b3d
00000380: d8e3 073d e8aa e3bd fb39 513d fb11 64bb
00000390: cb26 683c 3222 d8be 2b94 343d 64ce 4ebc
000003a0: 8fc5 e73d edff e5bd 3144 553d 5350 d2bd
000003b0: d7e8 bebd 6f45 52be 0ff8 db3c 999a 6ebd
000003c0: fa92 ac3c 59b9 873d a673 f83c 0470 f03c
000003d0: b38f 5a3e 1a5d 53bd 202a 0cbd 8493 d73d
000003e0: cb61 b73b 34be 98bd 931f 42bc 20dd 7dbd
000003f0: 28a5 3fbd d3c2 3a3e 41b6 8d3c 9449 fdbc
0.058342963 -0.14177407 -0.032897644 -0.05128677 -0.026458014 0.029428676 0.028951729 -0.07587529
0.038197067 -0.19099988 0.05639818 0.062465742 0.09604005 0.021855257 0.03238614 0.0680599
0.0202086 -0.0503011 0.0064098416 0.19250248 0.14414375 -0.120537184 -0.058162853 0.17124878
-0.18554346 0.17733455 0.051427882 0.09947187 -0.03808935 0.10518562 -0.014634833 -0.004441568
-0.049667664 0.13591346 0.015047096 -0.021453211 0.10528293 0.11436835 0.013983931 -0.045481954
-0.09954242 0.1409711 0.072065376 -0.11005425 0.18578015 0.20268373 -0.01388854 -0.036905378
0.11955896 0.04518571 -0.047339715 0.05820776 -0.06397228 0.046806578 0.02317243 0.044219617
0.10133485 0.020979714 -0.03594774 -0.06169862 -0.11816342 0.070136294 -0.05539956 -0.15568016
0.08760282 0.0910619 0.0020860415 -0.08472619 -0.08778634 -0.025078218 -0.0069836522 -0.054897748
0.053157773 -0.13584836 0.038938947 -0.11754085 -0.072468385 0.11348476 0.06047348 -0.076434284
0.105045065 8.311702e-05 0.013119303 -0.009468028 -0.031577274 0.011730376 0.054951902 -0.024443021
0.13810952 -0.04286337 0.026305446 0.0044572856 -0.04972547 0.12565792 -0.014000582 -0.027011866
-0.016156202 0.13224791 0.016069748 0.06689672 0.051108524 0.0791573 0.0039072926 0.12490088
-0.21426193 0.055654217 -0.01776478 0.07320017 -0.013365419 0.20933059 0.03580942 0.08464638
-0.10815533 0.010203923 0.0076043513 0.044095863 0.058636304 -0.10115655 0.020816054 -0.014249821
0.014893174 -0.1527313 -0.059746485 -0.05090652 -0.053469226 0.03551277 0.019367054 0.008668501
-0.08156338 -0.20058046 -0.01605358 -0.023202099 0.13115692 0.07224181 0.001060596 0.041956812
0.008036748 -0.18192287 0.045551565 -0.0013881967 0.17296188 0.31440988 0.06282501 -0.07515298
0.15221392 0.094033204 0.07024963 0.007947218 -0.13443807 -0.008941121 0.005236185 -0.021698829
0.13552615 0.14397913 0.03239759 0.009412462 0.045618173 0.02452836 0.019503318 0.025481015
0.13116771 0.11113928 0.09358355 0.12125093 0.064120576 -0.08472718 0.086235516 0.1297431
0.17684563 -0.18752843 0.0947663 -0.09555012 0.27651492 0.0928887 0.061211716 -0.043904413
0.13538128 -0.09130288 -0.01690149 -0.07442858 0.16860716 0.031811222 0.043613438 -0.14620525
0.16984987 -0.1206261 0.01398388 -0.03130624 0.038779296 0.09981084 0.0048519038 0.01004921
0.046430945 0.12437343 -0.03626421 -0.1825087 0.013992256 -0.22680305 -0.03628745 -0.09799103
0.17395668 0.14936453 -0.030533044 -0.089231595 0.11775871 -0.06342481 0.02836582 -0.08668704
0.079506345 0.09492297 -0.0033669393 -0.19288085 0.20703538 0.0912547 -0.043658044 -0.18028237
-0.016841827 -0.17179179 -0.052885897 0.07303005 0.026691653 -0.26732194 0.041834623 0.05756927
0.033176273 -0.11116582 0.051080685 -0.0034800756 0.014169405 -0.4221359 0.044086616 -0.01262245
0.11316978 -0.112304546 0.052066986 -0.10269227 -0.093217544 -0.205343 0.026851682 -0.058252905
0.021066178 0.06627149 0.030328583 0.029350288 0.2134388 -0.05160246 -0.03421986 0.10526183
0.0055963746 -0.07458153 -0.011848348 -0.06197846 -0.046788365 0.18238382 0.01729882 -0.030918874

fc1.bias f4 [256]
00000000: 75e5 463d 47db 313e 0b13 453e e87e 623c
00000010: c048 b73c d6e1 063e 357e 023d 0573 48be
00000020: 0d10 893d 18e4 2b3e b771 34be 3948 5fbb
00000030: 5fa4 de3c 1ae0 d5bd 2f82 313d faa8 223e
00000040: e9e2 383d 8a52 48be a8aa bb3d a7b5 013e
00000050: fda3 4fbc 6e92 2b3e e7e1 f7bd 41c3 fbbd
00000060: 95b8 cfbd 5fb6 06be 817f 09be 18b0 133c
00000070: 010a fdbd c805 80be e1ab 3e3e ce4e 81be
00000080: 772b 73bd eb35 163c fe7d 87bd 0284 8cbd
00000090: 6d60 44be 468a 3e3e 2acf 67bc 924b c1bd
000000a0: 6106 0fbd 9a08 25be 1e42 70bd 2a2b 18be
000000b0: 0415 8e3d 2061 45be 6aa1 a93d 7cca 863d
000000c0: c927 003e 4b98 ff3c 5a04 2dbe 4c12 d43d
000000d0: 9d43 cb3d 6b93 00be fee0 a4bd d99a 593e
000000e0: 26cd 38be 0c45 ad3d ca97 b1bc d9fa 3ebe
000000f0: 9473 80be dd59 803d 993a fd3d 22be 66be
00000100: 4f31 7abc 124f f33d 07ce 98bd 6fde 09be
00000110: c075 2bbe a959 13bc ef7c 2dbe 7077 273e
00000120: d53b 26be 7a2b 8e3d 9fb8 d4bd fe48 353e
00000130: b5c6 b03d 39c5 67bd 223d 1c3d cac5 e53d
00000140: 8225 80bd 209a 04be ce5f a4bb dd03 9dbe
00000150: 41b7 cc3d cc66 383e 4e84 813e d6b1 1abe
00000160: d580 72be 2370 e73d d1a2 d83d 8221 033e
00000170: 698c 5dbe 4a96 083d a693 ee3d 9e41 8a3c
00000180: 39c4 05be 42d4 4a3d 1a3b 56be 1eb4 af3d
00000190: 8deb d23d 66ea f73d 00c4 e93d 2544 b8ba
000001a0: ab01 47be ed47 633b 93b9 3ebe d4d2 dd3d
000001b0: 12ab 0ebe 7c68 0cbe 9157 86bd 7d05 a3bd
000001c0: d25f 6f3d 4fff 25bd 79a6 a33d d759 d23d
000001d0: fbcd cabd 5304 7b3e b212 f7bd f14d 99bc
000001e0: 85f9 53be fade f3bc 5b44 cd3d 40e7 b23c
000001f0: 785b c1bd db94 cb3d a99f fabd ceea 78be
00000200: d6ac aa3c 253e f3bd a02a aa3e 00d0 57bc
00000210: 51ea 5cbd cd44 933c 2215 2abe fd75 35be
00000220: 85c1 9c3d 0f2b f7bd e8fc 58be 6e30 f1bd
00000230: 6abe 443e 0b52 83bd 5fb4 ebbc fd7a 7fbe
00000240: 5ad5 213e e15d 80bd e713 e1bd 35ef 1fbe
00000250: ee07 0e3c 547a 823d f015 a1bd 2172 3a3e
00000260: e0a0 e0bc e230 623d 0c40 303e 37ab 3b3d
00000270: 33c4 cbbd 2acd 4e3d 3791 fb3c acd3 383e
00000280: fd9d 303e 39c7 823d c288 163e dc01 cf3d
00000290: 1551 57be a72d 1c3e e509 1ebe f724 cb3d
000002a0: 6e25 273b c24a ddbd 691f 3a3d 2b21 cdbd
000002b0: 0064 3bbd e67c 5ebe 087a 413d 8c47 603e
000002c0: c164 28be 00f1 78be c174 38bc 4ef6 7ebd
000002d0: e8e0 1dbe f71f 35bd 4125 07be e966 54bd
000002e0: 7105 123e f3ae bb3d 173c 2d3e 1960 31be
000002f0: 9b03 c2bd 778a b83d 3979 83bb 40c7 22be
00000300: 9e13 283c 5739 d93d be30 dd3b 2ee8 84bd
00000310: da4f f43c 531a cc3d 80e3 c8bd 37f3 213d
00000320: 076f ba3d 9e00 8b3d 9db0 cc3d 5195 233e
00000330: 81d9 523e ed23 863d ff60 1dbe 9164 803d
00000340: a669 ddbd e0aa 2a3e 51b8 15be 9643 11be
00000350: 7df6 debc 6f50 743d cec8 ec3d eed0 cabd
00000360: 7215 243e eaad 54be fa93 16be f018 53be
00000370: c538 46be ddb0 2bbe 1aa3 af3d dddc 10be
00000380: 5be7 3abe 8043 21be 60d5 c1bd 9d40 5e3e
00000390: e69b 32be 5c45 443e a793 a8bd 559c 6ebe
000003a0: 8813 efbc 22d8 ee3d 5f6a 933e 30ae b63c
000003b0: 7f58 1b3e 13e4 463e ca18 0d3d 44df 22be
000003c0: 6bf7 cd3d 90c3 173e ab4d f9bd 0884 773d
000003d0: 64c5 96bd bd3d 12be 540d 06be 3887 513e
000003e0: 38e9 17bc 4ae1 8f3c d03e e5bc f00d d2bd
000003f0: c84a 28be 698b 32bd 8959 8abe 4de5 27bc
0.04855867 0.17368804 0.19245546 0.013824202 0.022373557 0.13172087 0.03185864 -0.19575126
0.066925146 0.1678623 -0.17621504 -0.0034070148 0.027177988 -0.104431346 0.043337043 0.15884772
0.045138273 -0.19562736 0.091634095 0.12666951 -0.012673375 0.16755077 -0.12103634 -0.12293101
-0.10142628 -0.13155507 -0.13427545 0.009014152 -0.12355424 -0.2500441 0.18620254 -0.25255436
-0.059367623 0.0091681285 -0.06615828 -0.06861116 -0.19177409 0.18607435 -0.014148513 -0.09438242
-0.034918193 -0.16116562 -0.058656804 -0.14860216 0.06937602 -0.19275331 0.082827404 0.065815896
0.12515177 0.031200549 -0.16896191 0.10355052 0.099250056 -0.12556235 -0.08050726 0.21250476
-0.18047008 0.08460435 -0.021678824 -0.18650378 -0.2508818 0.0626714 0.12364692 -0.22533467
-0.015270545 0.11880316 -0.074611716 -0.13463758 -0.16744137 -0.008993545 -0.1694219 0.16354156
-0.16233762 0.06941886 -0.10386776 0.17703626 0.0863165 -0.05658457 0.03814424 0.11219366
-0.06257154 -0.12949419 -0.0050163036 -0.3066701 0.099958904 0.18007964 0.25296253 -0.15106902
-0.23681958 0.11300685 0.1057793 0.12805751 -0.21635593 0.03334645 0.116492555 0.016876992
-0.13063134 0.04951883 -0.20920983 0.085792765 0.10298834 0.12105255 0.11414337 -0.0014058395
-0.1943423 0.0034680322 -0.18625478 0.10831228 -0.13932446 -0.13711733 -0.06559671 -0.07960031
0.05844099 -0.040526684 0.079907365 0.10271042 -0.09902569 0.24513368 -0.12064113 -0.018713923
-0.20700653 -0.02976941 0.100228034 0.021838784 -0.094412744 0.09940501 -0.12237484 -0.24308321
0.020834368 -0.118770875 0.33235645 -0.01317215 -0.0539344 0.017977143 -0.16609624 -0.1772079
0.076540984 -0.1206876 -0.21190226 -0.11776815 0.19213262 -0.06412133 -0.028772531 -0.2494926
0.15804043 -0.06267906 -0.10990124 -0.15618594 0.008668883 0.063709885 -0.07865512 0.18207599
-0.027420461 0.0552224 0.17211932 0.04581758 -0.099495314 0.05048863 0.030708892 0.18049496
0.17247768 0.06385655 0.14700606 0.101077765 -0.21027024 0.1525179 -0.15433462 0.0991916
0.0025504488 -0.108052745 0.04544011 -0.10016092 -0.045749664 -0.21727332 0.04723552 0.21902293
-0.16444685 -0.24310684 -0.011258305 -0.062246613 -0.15417826 -0.044219937 -0.13197805 -0.051855955
0.14259888 0.09164228 0.16917454 -0.17321815 -0.09473344 0.09010785 -0.0040122536 -0.1589632
0.010258583 0.1060664 0.0067501953 -0.06489597 0.029823232 0.099659584 -0.09809017 0.03953859
0.09103208 0.06787227 0.09994624 0.15974928 0.20590784 0.06549821 -0.15369032 0.062691815
-0.108111665 0.16666746 -0.14621092 -0.14185938 -0.027217144 0.05964702 0.11561738 -0.099031314
0.16023806 -0.20769468 -0.14704886 -0.20614982 -0.19357593 -0.16766687 0.08576031 -0.14146753
-0.18252318 -0.15748405 -0.09464526 0.21704336 -0.17442283 0.19167084 -0.082312874 -0.23301823
-0.029184118 0.11662318 0.28792092 0.022299856 0.15170477 0.19422941 0.03444747 -0.15905482
0.10056957 0.14820695 -0.12173017 0.06042865 -0.07361868 -0.14281364 -0.13091022 0.20461738
-0.009271912 0.01756348 -0.027984053 -0.102565646 -0.16434777 -0.043589983 -0.27021435 -0.010247541

fc2.weight f4 [256, 256]
00000000: d315 9c3c 041e debb 051f 2abd 2c4c 3f3d
00000010: 40f3 13bd 246f 5b3d d6ff 0b3e 1bad 87bd
00000020: 939c fb3d 8c42 b63d 4b4e 493d 5daa 8abd
00000030: 420f 613e 7b65 c83c 2e61 71bd 9c50 843d
00000040: 1e42 e8bd b5f0 36bd 8f90 d6bd 7555 243d
00000050: 1e34 aa3d f2f6 20bd faed d83d 9593 6d3d
00000060: 9611 31bb 1d2b e1b9 a6d7 a63c d530 0b3d
00000070: 2d51 913a e581 773c e52e c63d 90e3 5ebc
00000080: c14c efbd 8496 d6bc 11a2 803d 058e 6bbb
00000090: eb5f eabb 7641 75be cbd1 c8bc 7564 c13c
000000a0: af6e aabd e0ee 9d3d 2e65 3ebd ec9a d9bb
000000b0: da5b 263d b314 bcbc 3ff5 b7bd 1c63 82bd
000000c0: 241e 3a3d d9f8 213d 04e7 ab3d e572 51bd
000000d0: 520f 9d3d a387 003c 96f9 d43b 1a07 8bbd
000000e0: 3abe 043e 0ecf f2bc 5f98 99bd ac70 1dbc
000000f0: 4930 e63d 5f2c b9bd 954d d2bd f492 86bd
00000100: e984 1b3d 6a6a 3cbd 02d5 f2bd 69fb 183d
00000110: 0342 36bd 0560 e23d 45fd 8cbd 3dac 81be
00000120: e640 ff3c 72a5 663d 9d47 fcbd 83ce b93d
00000130: 35ca ccbd afee 97bc b470 c63b 5e68 fc3c
00000140: f2b7 82bb ed97 36bd 2590 743d 4434 a6bc
00000150: 34a4 263c edfd 77bc 739f 3d3c 0a26 2e3d
00000160: 27d0 023d 9327 c73d 7082 0bbe e642 01bd
00000170: 4649 51bc 8603 42bd 6d9b 80be edf2 fdbb
00000180: 6f49 b13d 48f0 19bd ed8a 7d3d 81a5 36bc
00000190: a4e6 b93d 6811 b1bc 9b43 8bbd 1ebd 66bd
000001a0: 0067 4a3d ef14 a4bc eecd dd3d bdd8 bfbd
000001b0: e3b3 abbc 03e1 ae3d 62da 82bd 16d1 d2bc
000001c0: 793a f33d aa1c 9c3d 29f5 e1bd 04de 8b3d
000001d0: bdcb e4bd ef59 e2bc e5ec 38bd cf9c 86bd
000001e0: 2011 bfbb c832 04bc 9b03 043d 811c 473d
000001f0: 9559 12bd 531c 5f3d edc7 a13c 67f7 6c3d
00000200: 33e1 8b3d b8b0 96be a1b3 36be ccf6 7c3d
00000210: 8fca 273d 3af9 4e3d 545a 993d 4364 c1bb
00000220: 2aa1 03be 3fe6 e83d fa1b bebb 0873 ae3d
00000230: 8d97 453c 0761 713a 978c 013c 5ad0 0c3d
00000240: c4da 30bd 7063 533d e196 5ebe 55a0 7f3c
00000250: 927d 6abd 3056 a6be 04ed d53d d216 8bbb
00000260: 2ec6 9d3b 8f17 843d dd79 cf3b e20a 5a3d
00000270: 8346 35bd 9f53 09be acce 203d 1321 67bd
00000280: 309d 65bd 5af1 07bd 1b77 1abc 538e 14be
00000290: 7151 9dbd a6eb 1b3d 3ba9 28bd fb03 203d
000002a0: 77ab 4dbd b9b4 84bc 1db2 ebbd 712b ea3b
000002b0: ac6a 713d 90b5 ca3d 8bdc 903d 284d b7bd
000002c0: 7279 363e 6088 e6bd f5d1 b0bb 2fbb d13d
000002d0: 4547 c3bc 952c d9bc e457 a53d 9618 103d
000002e0: 2e22 6fbd af0b d73d 19f7 213d 0f1a d4bc
000002f0: f138 e93d 770a 0fbd b04d 61bd 4c56 013d
00000300: e092 3bbb 35e0 e0bd 1bef 843c 55c2 3bbe
00000310: f5e2 aabd 4105 8c3d b825 bb3b 1507 34bd
00000320: 1ad9 943c 2017 b23c dddb 06be 4f9e 31bd
00000330: 98cf e8bd b552 373c f44b 06bd 1654 b4ba
00000340: ef40 70bc 8d11 fb3d bca4 d23d 0a63 5bbd
00000350: c483 88bd 3260 b13c 67b5 d4bc f43d 07bd
00000360: 1d11 c4bd 60d9 aa3d d85b e9bd 0ba8 9a3d
00000370: d871 c2bc 604c 19bd 0677 51bd 8cdf e4bd
00000380: 1ef4 82bc 4eca 1e3c 60ac 893d 01f3 81bc
00000390: 1fc8 bebb 4fba bc3c 0c5c b63d 6015 dcbc
000003a0: a71e 923d bc22 b33d b00c abbe 4fcf e43d
000003b0: f5fc d6bc d91c 95bc 1795 933a 23e2 bfbd
000003c0: 5565 7c3d a455 f1bb 3333 1cbd 9fc2 343e
000003d0: a22c 19be 40c1 133d f810 38bc d9dc 3bbd
000003e0: bad0 ca3c bf2c 0c3d 4b90 34bd 757f 9d3d
000003f0: 991b 99bd 450f 1a3e 5f40 8bbd b23c c03b
0.019053375 -0.0067784805 -0.04153349 0.046703503 -0.036120653 0.05357279 0.13671812 -0.06624814
0.122857235 0.088994116 0.04914693 -0.067707755 0.21978477 0.024462452 -0.05893057 0.064606875
-0.11340736 -0.04466315 -0.10476791 0.04012056 0.08310722 -0.039298005 0.105922654 0.058002073
-0.0027018539 -0.00042947466 0.020366501 0.033982117 0.0011086814 0.015106653 0.09676913 -0.01360406
-0.116845615 -0.026194818 0.06280912 -0.0035942805 -0.0071525476 -0.23950753 -0.0245141 0.023607472
-0.083218925 0.077115774 -0.04648321 -0.0066407826 0.04061494 -0.022959089 -0.08982324 -0.0636656
0.0454389 0.03954396 0.08393672 -0.051134963 0.07668938 0.007844838 0.0064994795 -0.06788464
0.1296319 -0.029639747 -0.074997656 -0.009609383 0.112396784 -0.09041666 -0.10268704 -0.06570998
0.03796855 -0.04599992 -0.11857034 0.03734914 -0.044496547 0.110534705 -0.06884245 -0.2532672
0.031158876 0.056310125 -0.12318347 0.09072592 -0.099995054 -0.01854643 0.0060559157 0.030811485
-0.003989213 -0.04457848 0.05970778 -0.020288594 0.010170985 -0.015136224 0.01157366 0.042516746
0.03193679 0.09724345 -0.13623977 -0.03155794 -0.012773817 -0.04736664 -0.2511858 -0.0077499063
0.086565845 -0.037582666 0.061900068 -0.011147858 0.09077194 -0.021614745 -0.06800004 -0.0563327
0.049414635 -0.020029513 0.108302936 -0.093675114 -0.0209598 0.08539011 -0.063893095 -0.025734466
0.11876387 0.07622655 -0.11033089 0.068294555 -0.111716725 -0.027630774 -0.045147795 -0.065728776
-0.005830899 -0.008068748 0.03223 0.048611168 -0.035729963 0.05447037 0.019748652 0.05785313
0.06830063 -0.294317 -0.1784196 0.0617588 0.04096466 0.05053065 0.07487932 -0.0059018447
-0.12854448 0.11372041 -0.005801675 0.08518034 0.012060058 0.00092078786 0.007907054 0.034378387
-0.04317738 0.051608503 -0.21737243 0.015602191 -0.05724866 -0.3248763 0.10445598 -0.0042446638
0.0048148846 0.06449806 0.006331666 0.053233035 -0.0442567 -0.13410805 0.039259598 -0.056428026
-0.05605811 -0.033189155 -0.009427811 -0.14507417 -0.07681549 0.03806653 -0.041177016 0.039066296
-0.05021235 -0.016199457 -0.11508582 0.007146292 0.05893962 0.098979115 0.07073315 -0.08950263
0.17819765 -0.1125648 -0.0053961226 0.102407806 -0.023837695 -0.026510516 0.080734044 0.035179697
-0.058382206 0.10500275 0.03954229 -0.025891332 0.11387814 -0.03492209 -0.05500573 0.03157644
-0.002862148 -0.10980264 0.016227296 -0.1833585 -0.0834407 0.068369396 0.0057112835 -0.043952066
0.018169928 0.021739542 -0.13169809 -0.043363865 -0.1136772 0.0111891525 -0.03278728 -0.001375797
-0.014663919 0.12259207 0.10285327 -0.053561248 -0.06665757 0.021652315 -0.025965406 -0.033018067
-0.095735766 0.08342242 -0.11394471 0.07551583 -0.023735926 -0.037426353 -0.0511389 -0.11175451
-0.015985545 0.009691788 0.06722331 -0.015862944 -0.005822196 0.023038058 0.08904275 -0.026865661
0.07134753 0.087468594 -0.33408117 0.111723535 -0.026243666 -0.018202232 0.0011259642 -0.09369304
0.061620075 -0.0073649455 -0.038134765 0.17652367 -0.14958432 0.03607297 -0.011234514 -0.045864914
0.024757732 0.03422236 -0.04408292 0.07690326 -0.07475967 0.15044887 -0.06799387 0.0058666104

fc2.bias f4 [256]
00000000: 0f4b 6cbc a1d2 0abe 5277 46bd 987d 77bd
00000010: 1a8f 413d 1031 adbd 62fb a73c 4d73 82bc
00000020: d0c0 bcbc 6cf8 253c 858b d4bc c5e6 67bd
00000030: 2b9d b2b9 e6ba 9b3c 690d 08bd 15dc 533d
00000040: 700b 3dbd d65a 123d 6413 a1bd 2f2d 053d
00000050: 39b0 64bd a557 f13b 19dc 4f3d 1e86 91bd
00000060: 6fa9 83bc 2b07 c1bd a743 a9bc cf5c cabd
00000070: 7346 f4bc ef26 3dbd cfc3 2cbd ed10 ae39
00000080: 16d0 4fb9 15b7 72bd 0cf9 cd3d c71a afbd
00000090: d9c8 8ebc 2d49 273d 9a7c b03c a7b5 203d
000000a0: 9435 553c 4ad8 ef3b 9521 923c 4800 d23c
000000b0: 355c c73b b88d 6d3d 040c 57bd 6478 a73c
000000c0: 27be de3c ca02 30bd d322 bdbd b94a b13c
000000d0: cafb 983c 485d 47bd 0dfd a93b e9c2 613d
000000e0: 58cd 88bb 3989 69bd 6aee e53c 111b 0fbd
000000f0: 0e3d bcbd d207 8fbc 4f2b c73c da0c 08bd
00000100: 7321 16bd 3309 69bd 372e c0ba 892f e4bd
00000110: 4fe0 a53b 99b4 c9bc ae1f 6d3d 1c2f b9bd
00000120: 7116 86bc 7932 24bd b184 68bd e9b0 cd3d
00000130: 8255 8abd a58e 31bd 16bc 6dbd 5937 74bd
00000140: f21b d4ba eee7 923b fefd 1c3a 6fa9 fcbc
00000150: 7b1f 303d e055 68bd 0245 213d 4443 92bd
00000160: c771 d6bd 6eea 64bd 3679 59bc 1a17 babc
00000170: e348 92bd 1b27 e53d 0780 e6bc 8bad f13c
00000180: 34bf 5bbd 2fe6 5bbd 442e cf3c 0417 a9ba
00000190: 438e 983c eeee 0abd 31ce 9abd d0d4 0fbd
000001a0: bda7 7e3d 8476 2f3d d898 d33c af5f 87bd
000001b0: b950 5fbc 66e3 15bc af2b 473b 9a5c 92bd
000001c0: 10e9 b63d 2002 46bd 238d 3a3b ed64 2c3d
000001d0: d6ea eabc 25ff 96bc bdc7 1fbd 512f 8bbd
000001e0: 0fec 3b3d 9bb2 37bd 03fc 933c 84d4 923d
000001f0: ee8e 2bbd 2549 96bb 154f 733d 704a 97bd
00000200: 23fd 833d 101d b1bd f5fa acba 4c3b 8dbd
00000210: cf14 e93c f629 49bc 68df f93c 4e69 c03c
00000220: ce91 dc3b 2f52 ad3c a53e 8fbc 878c 55bc
00000230: 7e3e ce3c b113 12bc c693 763c bd0c 9abc
00000240: 5dfc b1bc 44b6 9fbb af85 0abd 5b28 903d
00000250: 4cc8 ff3b 9c00 bdbd 1f41 96bd 3ec3 0f3d
00000260: e4ba 86ba 773c 97bc a84b 2a3d 6f58 4f3c
00000270: 857d dabd 93b5 023d 261a a4bc a1bd 50bd
00000280: e760 f53c 67d8 503d 32e8 9ebd 00aa 93bd
00000290: f53d 21bc 3085 8dbd 0a32 7a3c 4e31 6abd
000002a0: 5ac4 4c3d 6646 b7bc 902c 2ebd be66 123c
000002b0: 16e6 a43c 17a4 a93a 47b8 763c 062c 6dbd
000002c0: 33bd 7fbd 3453 713c 6be8 4e3d a034 c13c
000002d0: 9f08 9fbd 3d91 91bd f8ac ccbd 282a babc
000002e0: 0750 323c 1a51 183c 0001 75bc 9e9b bf3c
000002f0: 65e4 36bd 9c7f bbbc 97ca e9bc 0e72 2dbd
00000300: 35fc 413c 0965 b3bd 93a5 873b 81a5 0f3d
00000310: 33b7 923d 09b8 7dbb 82c6 8cbd b4d0 383d
00000320: ee39 95bb 1c5c 89bc 9d9c 97bd 6b8f e8bd
00000330: 9d61 42bd c4d2 b2bb 5d81 b43d 232f 2d3b
00000340: 76d0 8ebb 1f0e 01bd 187d 88bd eac2 8bbb
00000350: db97 03be 0d63 593c 0fa0 cbbd a43d 0cbd
00000360: 6d0a 66bd a2be a93c e698 b2bd 63df 343d
00000370: 9b8d 7c3d 4db0 0fbe 444e dcbd d1e8 97bd
00000380: 98bd a3bd c206 273d 4de0 aa3d 2fa1 d63c
00000390: b4be a93d d048 cabc 719d abbb a4b0 3cbd
000003a0: f5b0 cabd 4fb6 293c ba33 b2bd 57e5 973d
000003b0: 370f 8ebd d7a4 873d 3101 8ebd dc06 1abd
000003c0: 04fd cabc 3e02 2c3d 82dd 3ebd 1aad fb3b
000003d0: 0a64 64bc 9fbd b13d 27d8 433d 33d7 19bd
000003e0: 2665 5abd 99af 993c 6d0c 1f3d 0430 75bd
000003f0: 8369 6f3d cb9f 7abc 25e5 293b 4a37 d1bc
-0.014422192 -0.13556911 -0.048453636 -0.06042251 0.047255613 -0.084566236 0.02050561 -0.01592412
-0.023041159 0.010130029 -0.025945434 -0.056616563 -0.00034067905 0.019010019 -0.033215914 0.05172356
-0.046153486 0.03573116 -0.078650266 0.032513794 -0.05583212 0.0073651844 0.05074701 -0.07105659
-0.016072003 -0.09425195 -0.020662142 -0.09880983 -0.029818749 -0.046179708 -0.042178925 0.00033200477
-0.00019818576 -0.059256632 0.100572675 -0.08550029 -0.017429756 0.04084127 0.02154379 0.039235737
0.013013262 0.007319485 0.017838279 0.0256349 0.00608399 0.05799648 -0.052501693 0.020443149
0.027190281 -0.04297141 -0.09235158 0.021642076 0.01867475 -0.048672944 0.0051876367 0.05511752
-0.0041748695 -0.05701563 0.028067786 -0.034937922 -0.09191333 -0.017459784 0.024312643 -0.03321538
-0.036652993 -0.05689354 -0.0014662211 -0.11141879 0.00506214 -0.024622248 0.05789154 -0.090421885
-0.016368123 -0.040087197 -0.05676717 0.100435086 -0.067545906 -0.043348927 -0.0580407 -0.059623096
-0.0016182645 0.0044832146 0.00059887755 -0.030842511 0.042998772 -0.05672252 0.03937245 -0.07141736
-0.1047092 -0.055887632 -0.013273528 -0.022716094 -0.07142808 0.111890994 -0.02813722 0.029501697
-0.053649142 -0.053686317 0.025290616 -0.0012900536 0.018622523 -0.033919267 -0.07558859 -0.035115063
0.062171686 0.042837635 0.025829718 -0.06610047 -0.013630086 -0.009148454 0.0030391028 -0.071465686
0.08931172 -0.04834187 0.0028465472 0.042088438 -0.028676432 -0.01843221 -0.039008845 -0.06796134
0.04587942 -0.044848066 0.018064504 0.071694404 -0.041884355 -0.004586356 0.05940159 -0.07387245
0.06444766 -0.08648121 -0.001319735 -0.068960756 0.028452305 -0.012278071 0.030502036 0.023487713
0.0067312485 0.021157352 -0.017485926 -0.013033993 0.025176283 -0.008915828 0.01504988 -0.018804902
-0.021726782 -0.0048740227 -0.033818897 0.07038947 0.0078058597 -0.09228632 -0.073366396 0.035098307
-0.0010279086 -0.01846145 0.041576058 0.012655362 -0.10668472 0.031911444 -0.020032 -0.050962094
0.029953433 0.050987627 -0.077591315 -0.07210159 -0.009841432 -0.06910169 0.015270719 -0.057175927
0.049991943 -0.022372436 -0.042522967 0.008935628 0.020129245 0.0012942579 0.015058584 -0.057903312
-0.062436294 0.01472931 0.05051462 0.023584664 -0.07765316 -0.0710778 -0.09993929 -0.02272518
0.010883338 0.00929668 -0.014953852 0.023389634 -0.044651408 -0.022887997 -0.028538985 -0.0423451
0.011839916 -0.08759505 0.004139611 0.035069946 0.07163849 -0.003871443 -0.068738 0.04512091
-0.004554025 -0.016767554 -0.074029185 -0.1135548 -0.047456373 -0.005457254 0.088137366 0.00264258
-0.0043583466 -0.031507608 -0.06664485 -0.004265179 -0.12850897 0.013268244 -0.09942638 -0.034238473
-0.056162287 0.020720784 -0.08720569 0.04415835 0.061658483 -0.14032097 -0.107571155 -0.07417453
-0.079951465 0.04077793 0.08343563 0.026199905 0.08288327 -0.024692923 -0.0052372743 -0.046066895
-0.09897033 0.010358407 -0.08701272 0.0741679 -0.06936496 0.066232376 -0.06933821 -0.037604198
-0.02477885 0.041994326 -0.046597965 0.0076805474 -0.013939867 0.086787455 0.04781356 -0.037558746
-0.05331912 0.01876049 0.03883021 -0.059860244 0.058450233 -0.015296887 0.0025923934 -0.02553906

action.weight f4 [2, 256]
00000000: 42fd 98bb 0aab 70be e39c 8f3d ad00 eabd
00000010: ca94 50ba 5e84 82be 1b15 28be 4584 64bd
00000020: b574 1bbd ecc7 a53d 19ca 9d3d 589b adbd
00000030: fb4c 933d 05a5 85bd fd04 86be fc46 b13c
00000040: 75aa b8bd 065e 223d e441 cd3d a773 ffbd
00000050: cfb7 15bd fa5c fabd 407f 313d f9f2 223d
00000060: 077a 95bd 16d6 a93d 70a9 fa3c 594f 2f3d
00000070: c629 4f3d f9d5 7dbc accd 7ebd e9df 4bbd
00000080: 0ac4 99be 51aa 13bd a236 69bd 4632 b4be
00000090: 9124 a6bd cab2 953d 40bf 1b3e df43 503d
000000a0: d200 913d 1ca7 b9bb 2812 153d c9c3 a23d
000000b0: b0c8 40bc 0fb8 94be 1715 73be a536 4d3d
000000c0: d6e6 8dbc 983b 8dbd e463 b4bd 733f 73be
000000d0: 854f 8e3e 3f9f 923c 5c9c 3e3d a4fe 8c3d
000000e0: d3e9 a5bd 661a dcbd 7efd f93d 695b eb3c
000000f0: 19ac f8bd e8aa abbd 3be5 cabc 3192 babd
00000100: f635 0bbb be8e 7dbd fb27 0a3d 39f5 c0be
00000110: 9ed1 e5bd fc36 6a3e ae64 0c3e 3f14 30be
00000120: 9456 603d 9206 583d 2003 d2bd 1021 eb3c
00000130: 31ec b83c e445 94bd 643a 9f3d 3054 18bd
00000140: 9e52 f4bd 9f69 183e 595e 61bd fd32 f83d
00000150: 19e0 9d3d 9114 c3bd fa43 fbbd 5288 afbc
00000160: 2eaf 3b3d 7b15 1dbd c838 2ebd 42ba 04be
00000170: 2416 0cbe 5b59 95bd 397f 42be f734 963d
00000180: ff03 89bd 9957 febc ac18 cabc 3bb8 283e
00000190: 736b f8bd 4c98 843d 6ddd 103c 70b3 1f3a
000001a0: 2413 203d 7e5f 073d e08c 70bd a698 62bc
000001b0: 0886 d8bc ec60 803d f1a7 2dbd 47e4 06be
000001c0: c377 a3bd 4311 713d 99d1 da3d d96c f23d
000001d0: 919c 0ebe 3ab5 15bd d585 863d ed74 17be
000001e0: e996 0c3e c436 693d aecc edbb 2dd1 1dbe
000001f0: fbc0 833d 25ef cbbd 5ee8 f2ba 011f 583d
00000200: 02be 543d e366 ccbd 8aa2 6a3c 3d8f 49bc
00000210: 2731 06be 6565 c63b 2d35 4f3d 8979 3e3d
00000220: aa92 ccbd 10dc acb9 a811 963d dfb4 0cbe
00000230: b242 2dbe 971b 813e 8aeb 20be 2849 64be
00000240: 5a5a f03c 021c 363d 9a6d 83bd 1aa2 f0bd
00000250: 767d 23be 89f4 b8be 170c 7d3d f0d1 e13d
00000260: 5dbd 053d e814 b53d da37 cbbc ba17 3e3d
00000270: 925a 23bb d6a4 73be 0381 993e 8d28 e2bd
00000280: 76f6 35bd 81e6 d5bc fb25 b23e 0416 443e
00000290: a881 c3be 9d2d a83d 4b1d c9bd 9b2a 9cbe
000002a0: 2370 123e 2cc3 593d 0d5e cebd e2e4 413e
000002b0: 6487 4fbd 50b6 373e 612d 913e fa36 17be
000002c0: 00d5 df3c 554b 63bd 7cd9 6d3c 838a 84bc
000002d0: e422 543e e8b8 273d f882 003d 2527 3d3d
000002e0: dc1a 873d 5c74 953d d573 473e 1930 84bd
000002f0: 2832 bdbd 20ea b8bb 6034 6bbe 9271 933c
00000300: a93d 743d 36a0 9fbd b4e5 cb3d df54 113e
00000310: 2f99 163e 2c46 f1bb 5c80 dabd ab54 24be
00000320: 2d0f e5bb 445c b7bc abc2 513d 547c 61be
00000330: 721f 363d 075a abbd e690 b6bd 508b a73d
00000340: 3241 d13d 7e2f c1bc 4e4e 893e 7a4c 3abe
00000350: cd7b 293e 5c4e adbd 84fc a83b 91b1 60be
00000360: a25d 143d 2051 e23b 94da a13d bd81 4abd
00000370: 8491 9e3d 4989 9fbd 1e47 a3be e46c a9be
00000380: ac1c 33be 53c3 1ebd 15a9 353e 277d b13c
00000390: 8090 983c 5e3c 87bd 36c1 a3bd 4380 603e
000003a0: d4eb 87be 7461 673d 0d60 c03d df19 fbbd
000003b0: 7c25 9ebd bd39 1cbe 2e67 5abe 388c ccbc
000003c0: de2b e2bd 2aec 96bd aab8 823d 4a75 093d
000003d0: efa2 32bd b3a4 19be f288 073e 822a 063e
000003e0: df61 70bd 68a4 57bd beda c73b a3e9 383e
000003f0: 0ce1 80bd 35db 70be fa45 b03d 87d8 133e
-0.0046688626 -0.23502746 0.07012346 -0.1142591 -0.00079567416 -0.25491613 -0.16414301 -0.055790205
-0.037953097 0.08094773 0.07704563 -0.08476895 0.07192417 -0.065256156 -0.2617568 0.021640293
-0.09016887 0.03964045 0.10022333 -0.12473231 -0.036552247 -0.12224765 0.043334246 0.039782498
-0.072986655 0.08292787 0.030598372 0.04280028 0.050576948 -0.01549291 -0.062207863 -0.049774084
-0.30032378 -0.0360511 -0.056936868 -0.35194606 -0.08112443 0.07309492 0.15209675 0.050845977
0.070802346 -0.005665673 0.03639427 0.07947499 -0.011766598 -0.29046676 -0.23738514 0.05010094
-0.017321985 -0.06896132 -0.08808115 -0.23754673 0.27795044 0.0178982 0.046535835 0.06884506
-0.08101239 -0.107472226 0.12206553 0.028730111 -0.121422 -0.08382207 -0.024767509 -0.09109915
-0.002124188 -0.061903708 0.033729535 -0.3768709 -0.11221622 0.22872537 0.13710281 -0.17195223
0.054770067 0.05274064 -0.10254502 0.028702289 0.022573562 -0.07239893 0.07774809 -0.037189662
-0.119298205 0.14884041 -0.055021618 0.121191 0.07708759 -0.09525407 -0.12268825 -0.021427307
0.04582136 -0.038350563 -0.04253462 -0.12961677 -0.13680321 -0.07292434 -0.18993844 0.07334321
-0.06690215 -0.03104763 -0.024669968 0.16476528 -0.12129869 0.06474361 0.0088418545 0.0006092107
0.039080754 0.033050053 -0.0587281 -0.01383034 -0.026431099 0.062684864 -0.04239649 -0.13173018
-0.07981827 0.058854353 0.10684509 0.11837167 -0.13926913 -0.036549784 0.06568495 -0.14790697
0.13729443 0.056936994 -0.0072570657 -0.15411825 0.064332925 -0.099577226 -0.0018532386 0.052763943
0.051939018 -0.099805616 0.014320979 -0.012302217 -0.13104688 0.0060545676 0.05058782 0.046502624
-0.099889114 -0.00032970356 0.073275864 -0.13740872 -0.16919973 0.25216362 -0.15714851 -0.22293532
0.029339958 0.044460304 -0.06417389 -0.117496684 -0.15965828 -0.36124066 0.061779108 0.110263705
0.032651294 0.08841878 -0.024806906 0.046409346 -0.002492581 -0.23793349 0.2998124 -0.11042891
-0.044424497 -0.02611089 0.34794602 0.19149023 -0.38184857 0.08211825 -0.0982004 -0.30501255
0.1430059 0.053164646 -0.100765325 0.18934968 -0.050666228 0.1794064 0.28354934 -0.14767066
0.027323246 -0.055491764 0.014517184 -0.016179329 0.20716435 0.040947825 0.0313749 0.04617991
0.0659692 0.072975844 0.1947778 -0.064544864 -0.09238082 -0.0056431442 -0.22969198 0.01799849
0.059629116 -0.0779423 0.09955922 0.14192532 0.14706872 -0.0073631015 -0.10669014 -0.16047923
-0.0069903345 -0.022382863 0.05121104 -0.22020084 0.044463582 -0.08366781 -0.08914356 0.081808686
0.10217513 -0.023582216 0.26817554 -0.18193236 0.16551133 -0.084622115 0.0051570553 -0.21942736
0.036222108 0.0069066435 0.079030186 -0.049440134 0.07742599 -0.07789857 -0.31890196 -0.3309089
-0.17491406 -0.038760494 0.17740281 0.021666123 0.01862359 -0.06603311 -0.079958364 0.21923928
-0.2654711 0.056489423 0.0939332 -0.12260794 -0.07721993 -0.152564 -0.21328422 -0.024969205
-0.11043523 -0.073692635 0.06382878 0.03355912 -0.043612417 -0.15004234 0.13235834 0.13102153
-0.058687087 -0.052647024 0.006099074 0.18057875 -0.06292924 -0.23521121 0.08607097 0.14438067

action.bias f4 [2]
00000000: 17a5 4c3c ec47 973d
0.012490532 0.07386765
