agent_1_critic_checkpoint.pth (torch_old, 317447 bytes, 5 tensors)

fc1.weight f4 [256, 50]
00000000: 5734 763f 2102 fcbe 21f7 eebd 902c 0b3e
00000010: e843 313c 9ba1 01be 0b5a 99bd ee10 153e
00000020: 5309 a03f b7db 91be 8c9f 223b bd2d 8a3d
00000030: 8ad1 7dbc 1bc3 4b3e 18a8 73be dfda a53c
00000040: 58d9 9b3f 131c 24bf 3abe cbbd 5852 7abe
00000050: 0b18 8d3e bd0f dfbd 5f95 9ebc a4a6 60be
00000060: cbfa ba3e 0d45 31be 86df c7bd dc7c a4bc
00000070: e98a 00be 2b8e 28be 41f4 25bd aede 32bc
00000080: 4273 2c3f 1374 68be bf96 1fbd ae03 edbd
00000090: 7d68 4fbd e1b3 193e 62f9 493c 180b bfbd
000000a0: df2b 133f 9c89 babe a63a 233d b5b9 12be
000000b0: db37 3ebe 9058 11bd 33cb a33c 6ffe 56be
000000c0: 4b52 9d3e 2c1a 43bf 4a95 bf3e 0cfa 803f
000000d0: ca8f 36be 8ed8 403e 7a03 003e 665a 2cbf
000000e0: 7663 893d 2449 35bd cd99 0a3f 97c4 8e3f
000000f0: 8773 3ebc 36cb 733b 0fb2 d6bc 386c 6abe
00000100: 7169 8dbd dbc0 97bd 5519 1f3f 635b 9c3f
00000110: 8a3d 4dbe 196e 063e fac0 9fbd 639a 5dbd
00000120: c87c 443d 09aa 923d da10 7d3e 7000 5dbe
00000130: 943e 3fbd fa22 853d 36e0 1fbe b4d0 42bf
00000140: 07ee 82bd 1a7b 993d 2feb ad3e e2d7 8bbe
00000150: 5021 8cbc fba2 54be 6f6c 61bc e2be 58be
00000160: b2cb 27bd 710d 99bd dd1a d03e f707 9cbe
00000170: 9e35 ac3d 7977 48bd d2a5 373d 9a63 913d
00000180: 46c7 d6bd bb98 6fbe 54e2 39bf ca2e 91bf
00000190: a3a4 263f 8b06 603f 2bba cdbd 3cdb b73c
000001a0: 9cb6 6b3e b794 4dbf eb12 95bd f105 d43d
000001b0: ff4b 4f3f d95b 1d3f af31 823d 8927 7f3e
000001c0: 4d91 adbd 21bc 98be ddca 35be 6082 f43d
000001d0: b3af 2d3f c686 823f f019 7dbd de63 0c3f
000001e0: 9e55 2ebf 9545 85be 839e a3bd 014a 053f
000001f0: 6004 4d3f 3ca5 b63e ce6e 00be 4305 fd3d
00000200: c7d5 bbbe 1930 3fbf d0f0 613b a767 b63d
00000210: 3281 333f 43bc 843e cbb0 6fbc 0329 82bd
00000220: 8079 383e ed9f 8fbe ac44 dfbd d75b 84bd
00000230: 5259 443f 89d8 243f 393b c33d e2ec 2a3e
00000240: 9250 203f 892d a8be 3f95 8fbd 5f30 0a3e
00000250: b7f8 3bbf 0d72 54bc 488d 053f 23a8 01be
00000260: d834 d3bc b83b 8a3e 32f7 db3d 9183 203d
00000270: e568 c0bd 0e2b 903e e016 f63e beda 71be
00000280: 072a f8bc 79d5 abbe faa9 043e 99bd 2e3d
00000290: 0478 4abc ab40 9ebe 714d 533f 68a5 c0be
000002a0: f1b1 abbc 9b45 5dbe 229b 083e f317 19bf
000002b0: 4bd6 6e3c 7240 97bd 4097 323f a5c9 c7be
000002c0: d4e2 8cbd e8b9 033d 358f 043d 17f6 9b3d
000002d0: f395 99bd f987 a13d dba7 5a3f d111 d5be
000002e0: ebf5 51bd 0029 b0bd 095a 06bd 9a64 5a3b
000002f0: acf2 ddbd 508b c3bd d313 443f bc21 c1be
00000300: e921 ab3c 8d06 8abe de65 03be 4531 e2be
00000310: 4ce8 abbd 53db b6bd 78c6 7fbf eb98 6ebf
00000320: f2a0 423f 1996 9f3f fcc0 30be e92a 803e
00000330: 8b96 ec3d 1b02 8cbf 5e2b 013d 146f 453e
00000340: 614b 873f 691a c63f 592a fabd ad88 8b3e
00000350: 5605 0ebe 73ac 26bf e4e4 44be 27a6 d23e
00000360: c26b b13f e74e ea3f c11b 4bbe db93 dd3e
00000370: 8f1b 69be 55cf 033f a446 933c a7e2 f73e
00000380: d4bf de3e fd3f 0ebe 1329 e7bc 59b8 003e
00000390: b911 b2bd 5909 81bf d1d1 08bd a6e5 29bd
000003a0: 2004 f83e ea68 75bd fdc2 b13d 816b f33d
000003b0: 42be 1d3e 841a c6be f513 b6bd 61a9 213e
000003c0: 1220 3b3f c659 433e 5202 1a3d 0075 213e
000003d0: 16ec cf3e 63d1 c63e e873 a6bd b7f8 da3d
000003e0: d5dc 5b3e c160 523f 179c 383e 4c5a 3bbe
000003f0: fa26 3a3d 7fec c53e bd3c 94be 60e7 dbbe
0.96173614 -0.49220374 -0.1166823 0.13591218 0.010819413 -0.12659304 -0.074878775 0.1455724
1.2502846 -0.28487942 0.0024814336 0.06747005 -0.015491853 0.19898646 -0.23794591 0.020245967
1.2175703 -0.6410534 -0.09948392 -0.24445474 0.27557406 -0.10891674 -0.019358335 -0.21938568
0.36519465 -0.17311497 -0.097594306 -0.020079069 -0.1255299 -0.16460483 -0.04051614 -0.010917349
0.6736337 -0.22700529 -0.038962122 -0.115729675 -0.050636757 0.15010025 0.012327524 -0.09328288
0.57488817 -0.36433113 0.039850853 -0.14328654 -0.18575995 -0.03548485 0.019994354 -0.20995496
0.30726847 -0.7621181 0.37418586 1.0076308 -0.17828289 0.18832609 0.12501326 -0.6732544
0.06708424 -0.044259205 0.5414093 1.1153744 -0.011624224 0.003719998 -0.026207952 -0.22892845
-0.06904877 -0.07409831 0.6214803 1.2215389 -0.20043007 0.13127936 -0.07800479 -0.054102313
0.047970563 0.07161338 0.2471346 -0.21582198 -0.04669054 0.06500812 -0.15612873 -0.76099706
-0.06393056 0.07494183 0.33968493 -0.27313143 -0.017105728 -0.20765297 -0.013758763 -0.21166566
-0.040965743 -0.07473267 0.40645495 -0.30474827 0.08408664 -0.048942063 0.044835873 0.070990756
-0.10487227 -0.23398106 -0.72610974 -1.1342404 0.65094966 0.87509984 -0.10045274 0.022443406
0.23018879 -0.80305046 -0.07278999 0.10352696 0.80975336 0.61468273 0.06357133 0.24917425
-0.084749795 -0.2983103 -0.17753167 0.119389296 0.6784622 1.019738 -0.061792314 0.54839885
-0.6809939 -0.2602965 -0.07989218 0.52066046 0.800848 0.3567294 -0.12542269 0.12354519
-0.36686537 -0.74682766 0.003447581 0.08906489 0.7011901 0.25924882 -0.014629553 -0.063554786
0.18015099 -0.280517 -0.1090177 -0.064628296 0.7669879 0.64392906 0.0953278 0.16691926
0.6262294 -0.3284724 -0.07010888 0.13495015 -0.73426384 -0.012966645 0.52168703 -0.12661795
-0.025782034 0.26998687 0.10740508 0.03918797 -0.09395007 0.28157848 0.48064327 -0.236186
-0.030293478 -0.33561304 0.12955466 0.042661283 -0.0123577155 -0.30908713 0.8254004 -0.37626195
-0.020958873 -0.21608584 0.13340428 -0.5980217 0.014577459 -0.07385339 0.6976204 -0.3902103
-0.068792015 0.032159716 0.032363135 0.07615297 -0.07499304 0.07887263 0.8541238 -0.41615155
-0.051259916 -0.0860157 -0.032800708 0.0033324123 -0.108373016 -0.09548056 0.7659275 -0.3772105
0.020890193 -0.26958123 -0.12831828 -0.44178215 -0.083939165 -0.089285515 -0.99912214 -0.93202084
0.76026833 1.2467681 -0.17261118 0.25032738 0.11552151 -1.0938143 0.0315355 0.19280654
1.0569879 1.547681 -0.122151084 0.27252713 -0.13869223 -0.65106887 -0.1922794 0.4114239
1.386101 1.8305329 -0.19834806 0.43276867 -0.22764419 0.5148824 0.01797802 0.4841511
0.43505728 -0.13891597 -0.028217828 0.12570323 -0.086947866 -1.0080978 -0.03340322 -0.041478775
0.48440647 -0.059914507 0.08679769 0.11885739 0.15404609 -0.38692105 -0.08890525 0.15787269
0.7309581 0.19077215 0.03759987 0.15767288 0.40609807 0.38831624 -0.08127576 0.1069197
0.2147096 0.82178885 0.18028294 -0.18296164 0.045447327 0.38656995 -0.2895259 -0.42949963

fc1.bias f4 [256]
00000000: 66e9 b1bf bc73 9bbf 15ac 28c0 6785 1dbf
00000010: 6c89 17c0 74d6 71bf 5a8b 82bf bdd5 88bf
00000020: 8e3d 0ebf d1ba 4bbf e5f7 30c0 526a 2fbf
00000030: 2a08 80bf f5be 9fbe 7456 2cbf 3202 80bf
00000040: daf8 57bf a645 2ebf 0c29 74bf 7b52 e03f
00000050: 35e1 bb3f 84a7 0ac0 f53e fbbe 3bec e5bf
00000060: f7ad e0bf f58a b3bf c584 1ec0 83aa d3bf
00000070: 3bbd 7ebf b909 a7bf e6a7 18c0 fc27 8dbf
00000080: 1b03 07c0 cec0 09be b293 fd3c c020 1cc0
00000090: b188 05c0 541e debf d4ca afbf a053 aabf
000000a0: 80fc 84bf cb15 d6bc 6ec8 96bf cfcb c9bf
000000b0: b112 f6bf afd2 16c0 14eb e8bf 51bc 40bf
000000c0: 101a ddbf f6e5 2cc0 fcf2 99bf 46a9 b3bf
000000d0: efcb e3bf 6716 a2be 1583 eabf 978f 45be
000000e0: c0c9 7ebf 1582 9dbf a41d 00c0 81f6 b7bf
000000f0: 4d1e b3bf 49c5 83bf d773 b3bf 58b2 d4bf
00000100: 4b2a ffbf 7625 87bf c697 44bf a812 55bf
00000110: 3fba 9abf 7d22 b53c 5519 edbf 19bd f2bf
00000120: 1939 0ebf 080a 03c0 77f9 16c0 6a63 33be
00000130: e8d5 a5bf d1e6 d4bf 295b 05bf bfb7 d0be
00000140: 2ca6 c8bf 2333 19c0 4e88 ad3e b420 3cbe
00000150: f69d a6be d341 93bf 1ace 38bf 6924 b4bf
00000160: ea3e 2ac0 5d80 22c0 90c5 1dc0 d305 05c0
00000170: aed9 ebbe 3811 c4be 217a 45be 4ce6 b9bf
00000180: 5315 66bf 12bd 31bf 7807 2fbd e400 13c0
00000190: 2921 f0bf ea36 20c0 ffa6 adbf 52bd d5bf
000001a0: 641a 8cbf 8e2d 53bf 18b3 aabe 80f3 a7bf
000001b0: 44f8 a4bf e16a 863e 4f1c adbf 8ca9 68bf
000001c0: 54a5 6ebf 82a5 d2bf 33a7 a2bf 4840 ff3e
000001d0: 63a2 b2bf d897 0ebf 5bdb 38c0 f631 65bf
000001e0: 735e 10c0 2e88 02c0 d2bd 67bf a39b 65bf
000001f0: a2d0 9cbf 318d eabe 5f0b e4bf 2f55 ecbe
00000200: 5a62 04be 3c2c 4dbf f8bc 97bf 7f16 04c0
00000210: 8403 adbf c5f7 1ebf 80f1 88bf fb8e d8bd
00000220: 711d 03c0 33de f8bf b951 74bf 812b 3bbf
00000230: 767b d1bf 91d3 8cbf 1803 febf 5932 81bf
00000240: c291 cebf d62b ffbf cd2b 57bf 8ee8 c2bf
00000250: fd90 2ac0 5eb6 47bf d1bf 343f ba4d abbe
00000260: a07f 15c0 c654 3ec0 e781 ffbd 40e0 f2bf
00000270: 4b3e b5bf 8c94 2ebf ffa7 bdbf 9ffc adbf
00000280: 37c1 87bf 087e 91bf caad e8be 35b8 a0bf
00000290: 2310 01c0 9c56 86bf db2d 3fbf e631 13c0
000002a0: d83b 03c0 c9a8 a5bf 9f1e b2bf 2450 afbe
000002b0: 41b6 6ebf f500 9bbe 2232 cabe 4436 35c0
000002c0: 4d80 c73d 6011 f7bf 7738 44bf 4aa6 123f
000002d0: c0b1 f03e a890 febf 9ebe 36c0 e2aa 2cc0
000002e0: cb33 b3bf 6ee0 d2bf 77d6 083d 306a 0dbf
000002f0: 3158 a0bf d35a 46bf 5a07 7cbf 6253 5bbf
00000300: d159 a6bf 36b3 8cbf 7e9d b6bf 14eb 0cc0
00000310: d09f c7be bf39 d7be 5338 703e 6048 d9bf
00000320: 0239 2d3f 6787 a63d a584 04c0 fe1e 23bf
00000330: cc4b 15c0 3b52 7fbf c840 e2bf 5808 babf
00000340: 3461 c3bf 2519 87bf 9031 30be 1e91 61be
00000350: f8e8 8bbf 9697 37bf 36cd d3bf bef5 fabe
00000360: b148 30c0 a84c 23c0 d6ef e0bf 641f 18bf
00000370: 3fc3 93bf 0387 58bf 8fef 89bf 606d 13bf
00000380: a49e 21c0 1864 b5bf 18d0 0bc0 0722 16c0
00000390: 8b4c aebf 3252 cebf 7b9e eabf 1db6 b9bf
000003a0: 2c2c a0be 2e30 2abf cdbf cbbe b59c 83be
000003b0: 5c1a 0d3f efa3 8dbe 3731 21c0 6c2c c1bf
000003c0: fd96 0bbf 53e4 b4bf eff3 92bd ab57 1cbf
000003d0: a2f9 dabf 95f9 a8bf e5f0 9abf eeee 4e3e
000003e0: ace9 87bf d808 c8bf c2c5 08be bcd4 bdbe
000003f0: 29eb acbf 1ed0 f93e 8e03 dfbf c453 f8bf
-1.3899353 -1.2144694 -2.635503 -0.6153168 -2.3677626 -0.94467854 -1.0198777 -1.0690228
-0.55562675 -0.79581934 -2.7651303 -0.68521607 -1.0002491 -0.31200376 -0.67319417 -1.000067
-0.8436409 -0.68075025 -0.9537513 1.7525171 1.4678103 -2.1664743 -0.4907147 -1.7962717
-1.755309 -1.4026781 -2.4768536 -1.6536411 -0.9950749 -1.3049842 -2.3852477 -1.1027827
-2.1095645 -0.13452455 0.030954216 -2.439499 -2.086468 -1.7353005 -1.3733773 -1.330677
-1.0389557 -0.026133439 -1.1779916 -1.5765322 -1.9224454 -2.356609 -1.819674 -0.7528735
-1.7273579 -2.7015357 -1.2027278 -1.4036033 -1.779661 -0.31657717 -1.8321253 -0.19293056
-0.99526596 -1.2305323 -2.0018091 -1.4372102 -1.3993622 -1.0294582 -1.4019727 -1.6616926
-1.9934782 -1.0558307 -0.7679409 -0.8323159 -1.2088088 0.022111172 -1.8523356 -1.8963958
-0.55555874 -2.0474873 -2.3589761 -0.17518392 -1.2955904 -1.663294 -0.52092224 -0.40765187
-1.5675712 -2.3937461 0.33893055 -0.1837185 -0.3254239 -1.1504463 -0.72189486 -1.4073611
-2.66009 -2.5390847 -2.4651833 -2.0784805 -0.46064514 -0.38294387 -0.1928487 -1.4523406
-0.8987629 -0.69429123 -0.042731732 -2.2969294 -1.876012 -2.5033517 -1.3566588 -1.6698401
-1.0945554 -0.82491386 -0.33339763 -1.3121185 -1.2888265 0.26253417 -1.3524264 -0.9088371
-0.9322102 -1.6456759 -1.2707275 0.4985373 -1.3955806 -0.55700445 -2.8883884 -0.8952936
-2.2557647 -2.0395617 -0.9052402 -0.8969061 -1.225117 -0.45810845 -1.781597 -0.4615874
-0.12928143 -0.8014562 -1.1854544 -2.063873 -1.3516698 -0.62096816 -1.06987 -0.10574146
-2.048672 -1.944281 -0.954372 -0.73113257 -1.6365802 -1.1002065 -1.9844694 -1.009349
-1.6138232 -1.9935253 -0.8405121 -1.522722 -2.6650994 -0.78012645 0.7060519 -0.33457738
-2.3359146 -2.9739242 -0.12475949 -1.8974686 -1.4159635 -0.68195415 -1.4816893 -1.3592719
-1.060584 -1.1366587 -0.4544509 -1.2556216 -2.01661 -1.0495181 -0.74679345 -2.2999206
-2.0505276 -1.2942134 -1.3915595 -0.3424083 -0.9324685 -0.30274168 -0.39491373 -2.831437
0.09741268 -1.9302177 -0.7664866 0.57284987 0.47010612 -1.9887896 -2.8553843 -2.6979299
-1.4000181 -1.647474 0.033407655 -0.55240154 -1.2526914 -0.77482337 -0.9844872 -0.8567411
-1.299616 -1.0992191 -1.4266813 -2.201848 -0.38989115 -0.42036244 0.23458986 -1.6975212
0.6766511 0.08131295 -2.070596 -0.63719165 -2.3327513 -0.9973485 -1.767602 -1.4533796
-1.5264039 -1.0554549 -0.17206407 -0.22028014 -1.0930471 -0.71715677 -1.6547 -0.4901561
-2.7544367 -2.5515537 -1.7573192 -0.594229 -1.1543959 -0.8458101 -1.0776232 -0.5758877
-2.5253077 -1.4171171 -2.184576 -2.3458269 -1.3617109 -1.6118834 -1.8329614 -1.4508702
-0.312837 -0.66479766 -0.3979477 -0.25705495 0.55118346 -0.27664134 -2.5186288 -1.5091681
-0.54527265 -1.4132179 -0.07175433 -0.6107127 -1.7107432 -1.3201166 -1.2104765 0.20208332
-1.0618186 -1.5627699 -0.13356689 -0.37076366 -1.3509265 0.48791593 -1.742296 -1.9400563

fc2.weight f4 [256, 256]
00000000: e804 293d e877 053e cbdb 8a3e 6e9e 953d
00000010: a55e 083e 4c5b 51be 9271 fa3c e285 e23d
00000020: cee1 433d 7080 c5bd 0e8a 003e f5a8 69be
00000030: 14e4 89bd 3a8e 1e3d a0ec 70bd 6715 143d
00000040: 708b 5fbc b984 893d 6e0a 07bc 27d2 2fbe
00000050: 4caf 88bc eb40 3a3e 44f8 0e3c 23fc dcbc
00000060: c2cc a73d 5feb b23d c2a9 193e 0478 71bd
00000070: 4bae 913d cbba 063e c320 1d3e 2b71 16be
00000080: df15 813c 680c 1bbe c661 37be 1d5b 7ebd
00000090: db6f 273e 653e fd3c 10af bb3d 4e53 483d
000000a0: daf8 89bc a418 38be defa 343e c32b af3c
000000b0: 601e 1c3d 09c5 643e 7587 23bd 0cb7 863d
000000c0: 502b 573c 2e78 413e 167a 3a3d dd21 0cbd
000000d0: 4bcc 8d3d 0f23 8c3d fcd1 7c3e 5b79 593d
000000e0: 91bc a8be 95fa 5dbd 82b3 763d 9fc4 f33c
000000f0: 33b2 56be f21a 6fbb 407a cb3c 6daf fd3d
00000100: c611 7a3e c68e de3d 95da 84bc 300c 793d
00000110: ae70 283e 4a5a 413d 4dfe f03d 2c29 153e
00000120: b757 9bbc abbe ac3d cb57 1e3e 2787 703c
00000130: acb7 38be 158c 1abe a1d9 7ebc 5826 873d
00000140: c25f b53d fd8d 2a3e 3b3c 7cbe 7031 04be
00000150: 9163 683d 979a 0c3d 1ea7 043e 4b17 a63d
00000160: efea ab3d 0d1c b6bb 923e 423e 1386 00be
00000170: c632 65bc a9b8 5e3c 4211 943c f6aa 403d
00000180: 511e cf3d 9276 dcbd 0de0 223e e090 383e
00000190: 8186 283e 084e 423e dc2c 0e3e 6c37 e7bc
000001a0: 2888 2c3d 71d1 cc3d ef8d f13d 76d3 1d3d
000001b0: ae2d a93a ddf2 42bd fdf2 883c 0584 323e
000001c0: 7ca7 233d fcf3 1cbd 7bb9 d93c 6909 a63d
000001d0: e3c6 c23d a274 ab3d e1cb 713e bbaa a73c
000001e0: f9b9 9cbd 00de ef3d 7c89 913c c6fc a43d
000001f0: 9db1 96bd 23af 64bd 8272 41be f18d 213c
00000200: 9722 25bc 0759 90bd d6d0 b13b 313b 2b3e
00000210: 333b 183e c81c 3e3e c135 8d3d 1c8e 85bd
00000220: 828c 463e 349a 853e 75f0 17bd 30ad 763d
00000230: 8197 0fbd 80b1 8fbd 57fc c83d 5fb0 ec3d
00000240: ef5e 8dbd 51fd 3e3d 24e2 6a3b d72a 273e
00000250: 323e 543e 47ba ccbc 9064 bdbd a593 e93d
00000260: 9eee 6b3d 7d76 3d3e 0aa1 1cbd 3779 21be
00000270: 5334 26bc 3c09 9bbd a3e7 9abd a412 3cb7
00000280: 090e 033d fca8 72bd 3297 053d 057c d03d
00000290: 8ac7 883e 3d77 91bc 741f 003e 0c99 d0bc
000002a0: 96f0 833c 760b 8c3e 8491 6d3c 56f9 ae3c
000002b0: ffa5 ffba 7b0c ff3d 4bf4 57bd 5175 9c3d
000002c0: 48ae a7bd 36a2 c13d 06e8 343d b8d0 4abd
000002d0: 3fa3 cbbd 2dc6 bd3d 6700 d63d 42ea 423d
000002e0: 7391 cd3d c174 cd3d e99e a4bc 5232 a3bc
000002f0: e222 9eb9 7a97 bf3d 2e17 a8bc 4681 2abc
00000300: 0223 24bd 55f7 d13d 9034 c93d ff4a fb3c
00000310: bca6 013c 6844 1b3e a157 b3bd fd50 983d
00000320: 2617 a1bd 17b6 62bd f7bc 3c3d 4213 c73c
00000330: 35db 5b3e a781 053d 82b8 183e 1dfb 3dbd
00000340: 15f1 42bc d089 e73d 92bf bf3d 5395 04be
00000350: cbb5 d83d 418a 27be 92e5 303d 457a 5fbe
00000360: ab81 e03d 23f2 473e 790f 65bd 3c55 f83c
00000370: 93b2 53bd 469f ed3c 7716 a9bc c568 383c
00000380: 39e2 f63c d3df 72bc 4dd5 0c3e a7d3 d33d
00000390: 7231 303e dffe 69bd e1a0 363e 2157 8e3d
000003a0: 5df9 dbbd ad90 a4bd 657d 1abe e945 60bc
000003b0: 411d 71bb 8e11 923e fdba 353e 5da1 853d
000003c0: 5c8d 28bc 9f0a 58bd 674a b4bd ec7a ca3b
000003d0: e461 cb3c 8fa5 353d 834e 873d aeec ef3d
000003e0: 4cc8 bfbd 5cd2 013d 293a 29be 36a5 b53d
000003f0: d60d 79bb 388a 2ebd e833 8a3d 859a 1e3c
0.041264445 0.13034022 0.27120814 0.07305609 0.13317354 -0.20444983 0.030571733 0.11060692
0.047822766 -0.09643638 0.12552664 -0.22818358 -0.067329556 0.038709857 -0.058819413 0.036153223
-0.013644084 0.06714768 -0.008242233 -0.1717001 -0.01668515 0.18188827 0.008726183 -0.026975697
0.08193351 0.087363 0.15006164 -0.058952346 0.07113322 0.13157193 0.15344529 -0.14691608
0.0157575 -0.15141451 -0.17908391 -0.06209861 0.16351263 0.030913541 0.0916425 0.04890757
-0.016842294 -0.1797815 0.17673823 0.021383172 0.038114905 0.22340788 -0.039924104 0.06577882
0.013132885 0.18893501 0.045526586 -0.034211982 0.069237314 0.068426244 0.24689478 0.05309425
-0.32956365 -0.05419405 0.060229786 0.029756842 -0.20966415 -0.0036484567 0.024838567 0.123869754
0.24420843 0.108670756 -0.01621751 0.06080264 0.16449234 0.047205247 0.11767254 0.14566487
-0.018962724 0.084348045 0.15463178 0.01468066 -0.18038815 -0.150925 -0.015554816 0.0659911
0.08856155 0.16655727 -0.24632351 -0.12909484 0.05673558 0.034327116 0.12954375 0.081099115
0.083944194 -0.005557543 0.18969181 -0.12551145 -0.013989156 0.013593831 0.018074635 0.04703804
0.10113204 -0.10764803 0.15905781 0.18024015 0.16457559 0.18975079 0.138843 -0.02822467
0.042122036 0.10000885 0.1179465 0.038531743 0.001290729 -0.047594894 0.016717428 0.17433174
0.039954647 -0.03831862 0.026577702 0.081072636 0.09510591 0.08371855 0.2361293 0.020467153
-0.07652659 0.11712265 0.017765753 0.08056025 -0.07358096 -0.055831086 -0.18891338 0.009860502
-0.010079048 -0.070482306 0.0054265065 0.16721798 0.14866333 0.18565667 0.06895018 -0.06521246
0.19389537 0.2609421 -0.037094552 0.06022376 -0.035056595 -0.07016277 0.09813755 0.115570776
-0.06902873 0.0466283 0.0035840357 0.16324936 0.2072685 -0.024991168 -0.092476964 0.11405114
0.05760061 0.18502231 -0.038239516 -0.15768896 -0.010144311 -0.07570121 -0.075637124 -1.1210013e-05
0.031995807 -0.059243187 0.032614894 0.10179905 0.26714736 -0.017757053 0.12511998 -0.025463603
0.016105931 0.27352494 0.014500026 0.021359127 -0.0019504427 0.12453552 -0.05272321 0.07639564
-0.081875384 0.094547674 0.044166587 -0.049515456 -0.09943246 0.09266315 0.104492955 0.047586687
0.10037508 0.10032035 -0.020095306 -0.019921456 -0.00030162098 0.09355064 -0.020518865 -0.010406798
-0.04007245 0.10252253 0.098244786 0.03067541 0.007913288 0.15162814 -0.08756948 0.07437322
-0.07865743 -0.055349436 0.04607865 0.024301175 0.2147034 0.03259435 0.14914134 -0.04638206
-0.011898299 0.113055825 0.09362711 -0.12947588 0.10581549 -0.16361333 0.043187685 -0.21823986
0.10962232 0.19525962 -0.05592296 0.03031408 -0.051683974 0.029006612 -0.020640595 0.011255448
0.030137168 -0.014823872 0.13753243 0.10343104 0.17206362 -0.05712783 0.17834808 0.06950212
-0.10740922 -0.08035407 -0.15086897 -0.013688543 -0.0036791118 0.28529018 0.17747112 0.06524918
-0.010287609 -0.052744504 -0.088032536 0.006179204 0.024826951 0.044347342 0.06606772 0.11715065
-0.093643755 0.031694755 -0.16526093 0.08869402 -0.0038002632 -0.042612284 0.067481816 0.009680395

fc2.bias f4 [256]
00000000: 9d95 dfbe e116 e6be 7af2 25bf 5db9 1b3e
00000010: bc53 bebe 1c39 fbbe bf41 19bf ea60 0dbf
00000020: fa40 0fbf 4006 20bf b092 dcbe 7566 b0be
00000030: d8f9 18bf 70ae fdbe b8d5 10bf 6028 1cbf
00000040: a630 2ebc f8cb 1abf c449 0ebf a840 1abf
00000050: ecce cabe 4620 10bf f137 debe 99db f4be
00000060: 006f 19bf 78b7 04bf cbcd 0fbf 2be9 01bf
00000070: 96e5 d8be 9917 22bf 2339 12bf 9061 1ebf
00000080: 523d 23bf 8643 0abf c1d0 31bf 899d 23bf
00000090: c001 0fbf 4f1b a83f 4e25 1abf 357f b0be
000000a0: d51b d2be 27be 1ebf 81ca 33bf 1fb6 15bf
000000b0: cd11 02bf bdb5 2fbf 8345 e7be c585 83bf
000000c0: f2b8 22bf d1e1 08bf 3291 51bf 1c9c 7cbf
000000d0: 2f43 04bf 275f b8be 9484 eabe 0718 d2be
000000e0: a0f4 0bbf 4a07 10bf ef04 b5be 3153 1bbf
000000f0: 4f7f 0fbf ed05 56bf f16b 0abf a027 1fbe
00000100: 4125 33bf 2b46 16bf c35e f5be 6aa4 11bf
00000110: 9bdb a1be d2d4 e4be aaa5 c4be 49be ebbe
00000120: 8475 10bf 1d79 1bbf 3c54 1ebf a00c 2ebf
00000130: a790 08bf b97a 31bf df29 1fbf 0d10 f8be
00000140: 2442 d1be b406 b5be ee7d 9ebe 39a2 e8be
00000150: 3366 89be 7703 0dbf 63a9 9ebe 6b42 fabe
00000160: 85cf 05bf 7049 12bf ad2d 22bf db17 15bf
00000170: 8369 0ebf 9e86 26bf d86e 01bf ad12 62bf
00000180: 4663 0fbf dbb8 fbbe 4ca2 26bf 03a7 ecbe
00000190: 92fb 08bf 1ee5 1fbf 495a 00bf 769a 16bf
000001a0: c620 debe a181 a6be dd7a 9bbe d58a 0ebf
000001b0: 055c 0dbf e8c2 e2be 5ba4 05bf e8d1 84be
000001c0: 96cd 08bf 8c2a dfbe a29a 0ebf 3255 2bbf
000001d0: c7ef e3be 4476 12bf 92f4 f6be 1d6d 05bf
000001e0: 27ed f5be 0f75 1dbf 3526 33bf 8651 27bf
000001f0: 80c9 13bf a281 8ebf bb0b fdbe cebd d7be
00000200: a96d 0cbf ef60 d2be f806 edbe 55df ffbe
00000210: 7faf 1ebf b6fd 27bf 75f2 0bbf 009c e1be
00000220: fb5f e8be 5057 88bf 947f abbe ec1b cabe
00000230: 330b 08bf 232a f4be e8b9 09bf 47f1 edbe
00000240: 3318 ebbe 87dd dbbe d60e 12bf 04d8 0ebf
00000250: a5aa 08bf 6fe2 12bf 6a00 0cbf 8459 1cbf
00000260: 9308 febe 7b7b 15bf 69aa 39bf fcec 81be
00000270: 28a3 07bf 7320 16bf f731 00bf b9a7 eabe
00000280: 7135 16bf c6ea 12bf 59a8 b9be f9c0 14bf
00000290: 6016 c7be 0e30 23bf bf5e f5be 0112 d0be
000002a0: 92dd e5be b641 1abf 0bdc e8be dc3b 0dbf
000002b0: 5444 2bbf adbc 0cbf f145 0dbf 83bd 06bf
000002c0: cb73 8fbe 6379 e2be 534c 01bf 1306 21bf
000002d0: 2ae0 423f 8796 03bf 581b dabe 8f98 cabe
000002e0: 04de 0fbf b965 21bf 3947 0cbf a77a 21bf
000002f0: 62d3 2cbf 363f dfbe 44b2 24bf 3c50 1abf
00000300: 3164 4cbf eb68 9a3c 1a44 06bf c894 b6be
00000310: d89a 35bf 876b 08bf 6668 02bf 6237 f4be
00000320: cfbc d6be c078 ebbe 8c00 e9be 536d 06bf
00000330: 6365 06bf 2a4e 19c0 740f 14bf 3d56 d9be
00000340: a577 1ebf 5a40 2fbf b668 ecbe e04a 0cbf
00000350: c979 01bf 140f e1be 0948 e0be a3b5 1fbf
00000360: 3f3b 39bf 16a2 37bf b3a6 30be 8d65 0fbf
00000370: ae96 87be 0246 c5be e20d cbbe 7607 d7be
00000380: 5f01 6bbf 4de4 e3be 071d 02bf 41ae debe
00000390: 84bd f0be be74 1dbf ff05 98be 86ab 2abf
000003a0: 1e63 0cbf 33c8 28bf 2056 f4be 8739 0bbf
000003b0: c709 e2be f4ce 00bf ab83 0abf eb3e 2dbf
000003c0: 1649 1cbf e494 1bbf 0e0b d0be bf2b dabe
000003d0: 402e 2fbf 6bf0 fabe 3317 2ebf c468 05bf
000003e0: 5d4f 1bbf e944 85bf 7b5c bdbe c66c d53f
000003f0: 42e6 d9be 76e4 833e 5cba e0be b11b 04bf
-0.43668833 -0.4493933 -0.64823115 0.15207429 -0.3717326 -0.49067008 -0.59865946 -0.55226004
-0.5595852 -0.62509537 -0.43080664 -0.3445317 -0.5975623 -0.49547148 -0.5657611 -0.6099911
-0.010631716 -0.6046748 -0.5558131 -0.6025491 -0.39610994 -0.56299245 -0.43402055 -0.4782379
-0.59935 -0.5184245 -0.5617339 -0.5074641 -0.4236266 -0.6331726 -0.57118434 -0.6186762
-0.6376544 -0.5400928 -0.6945916 -0.63912255 -0.55862045 1.3133334 -0.6021317 -0.3447205
-0.4103686 -0.620089 -0.7023087 -0.5848102 -0.5080841 -0.68636686 -0.4517022 -1.0275198
-0.63563454 -0.5346957 -0.81862175 -0.98675704 -0.51665014 -0.36010095 -0.45804274 -0.41033956
-0.54670143 -0.5626112 -0.35355327 -0.60673815 -0.5605363 -0.8360279 -0.54070956 -0.1554246
-0.6997872 -0.5870082 -0.4792386 -0.568915 -0.31612858 -0.4469362 -0.38407642 -0.46043614
-0.56429315 -0.6073168 -0.6184728 -0.67988014 -0.5334572 -0.69327885 -0.62173265 -0.48449746
-0.40870774 -0.35356677 -0.30955452 -0.45436266 -0.26835784 -0.5508341 -0.30988607 -0.48878798
-0.52269775 -0.57143307 -0.63350946 -0.58239526 -0.5562975 -0.6504916 -0.5055976 -0.88309747
-0.56010854 -0.4916447 -0.65091395 -0.4622117 -0.53508866 -0.6245898 -0.50137764 -0.5882944
-0.4338438 -0.32520774 -0.30367175 -0.5568059 -0.55218536 -0.44289327 -0.5220391 -0.25941396
-0.534387 -0.43587148 -0.557047 -0.6692687 -0.44518873 -0.5721171 -0.48233467 -0.5211962
-0.48032495 -0.6150674 -0.69980174 -0.6535877 -0.5772934 -1.1133311 -0.49423012 -0.42136997
-0.5485483 -0.4108958 -0.4629438 -0.49975076 -0.61986536 -0.6562151 -0.54666835 -0.4406433
-0.45385727 -1.0651646 -0.33495772 -0.39474428 -0.5314209 -0.47688398 -0.53799295 -0.46473143
-0.459169 -0.4294245 -0.5705389 -0.55798364 -0.5338538 -0.5737676 -0.5468813 -0.6107409
-0.49615917 -0.5839154 -0.7252565 -0.25376117 -0.5298333 -0.58643264 -0.5007624 -0.45831087
-0.58675295 -0.57389486 -0.36261252 -0.5810695 -0.38884258 -0.637452 -0.47923848 -0.40638736
-0.44895607 -0.60256517 -0.4548038 -0.55169463 -0.66901135 -0.54975396 -0.5518485 -0.5263292
-0.2801803 -0.44233236 -0.50507087 -0.62899894 0.761233 -0.5140156 -0.42598987 -0.39569518
-0.56198144 -0.6304584 -0.5479618 -0.6307778 -0.67510045 -0.43602914 -0.6433451 -0.6027868
-0.7984038 0.018848857 -0.52447665 -0.35660386 -0.709394 -0.53289074 -0.5094055 -0.47698504
-0.41940925 -0.45990562 -0.4550823 -0.52510566 -0.52498454 -2.3953958 -0.5783608 -0.42448607
-0.61901313 -0.6845757 -0.46173638 -0.5480175 -0.50576454 -0.43956816 -0.43804958 -0.6238653
-0.7235603 -0.717317 -0.1725109 -0.5601433 -0.26482147 -0.38529974 -0.3965903 -0.4199788
-0.9179897 -0.44510117 -0.5082554 -0.4349232 -0.4701959 -0.6150626 -0.29692075 -0.66667974
-0.5483874 -0.6593048 -0.47721958 -0.54384655 -0.44148085 -0.50315785 -0.5410716 -0.6767413
-0.6104902 -0.60774064 -0.40633434 -0.426115 -0.68429947 -0.4901155 -0.6800415 -0.52112985
-0.60667974 -1.0411655 -0.3698462 1.667382 -0.42558485 0.2576024 -0.4389218 -0.51604754

value.weight f4 [1, 256]
00000000: 1b4b b2bc 1be6 dbbb 77cd b0bb 9782 993b
00000010: abba 88bc 4113 023a 4356 0139 6147 d4b8
00000020: 9206 76bc 935b 7fbc b625 c2bb 9cb9 cc3b
00000030: 19e9 d339 18c8 e5bb fd36 223d 6b15 02ba
00000040: f758 f53b f292 b0bc fcea 4bbc 8bd3 d93b
00000050: a7ba c1ba 68f4 f13a 6c65 853c 7a8a 71bc
00000060: a4ee 043c e22c 26bc b7b6 2cbc 18d7 abba
00000070: ac65 b03b f073 8fbc 5181 0dbc 2e45 9c3b
00000080: 1a36 32ba 695d 84bc 4061 ecbc ab49 8cbc
00000090: 6add 303c 4dcc b93c 42c8 253b be2f eebc
000000a0: 86b2 85bc 2061 22bc 8ecc 8c39 c620 a6bc
000000b0: 5f10 78bb 1f79 8ebc 2243 efbc fee9 d7b9
000000c0: 3b51 b0ba 1eac 36bc 28ec 66bc ac9f 743c
000000d0: 4774 ebbc 3810 703a ad89 3cbc def2 103c
000000e0: 078b ab3c fce9 8ebb 5d65 c7bc db70 8ebc
000000f0: eb4d b3ba a99d a9bb 11cd cfbb a595 963b
00000100: 9d59 33bc 9e5b f93b 0ee9 6dbc 27aa 9abc
00000110: f2b0 af3c f181 a8bc 4209 37bc a8a2 0cbc
00000120: d15e 91b9 e05b 44bc c786 a5bc 57a5 dd3b
00000130: 2168 e3bb 61ef e6bc 915a b3bb 9c03 003c
00000140: fe9a 033b e50a bdbc 1939 49bc b93a 9fbb
00000150: 6104 46bc 42ee fe3a 129c a0bc 1360 6ebb
00000160: ff55 f7bb f866 c7bb 089b 34bc fd73 45bc
00000170: fe73 9ebc 5ce3 00bd 0850 14ba 0101 98bc
00000180: 96af e3b8 d44c e9bc b635 76bc 36e4 23bb
00000190: 13aa 9cbc 7e03 dcb9 0c62 48bc 0d5a 5fbc
000001a0: 4cee 843a 62fd 25bd 6be0 44bd 1cda 923c
000001b0: 96f5 a1bc 02fb c6ba 0a9e 973a dd88 b43c
000001c0: f8bb aa3b 6753 b7bc 4b9e 0f3d b054 543b
000001d0: 54bd 0bbc 8982 33ba e25c a73b 2d92 afbc
000001e0: e031 abbc 404c 223d 8fe3 043d 8af8 82bc
000001f0: 5080 5ebb 5931 abbc eb83 ca3a 2843 0abc
00000200: 7cfa e13a 74ea 533b 47f4 9cbc ceb2 51bc
00000210: 6b45 96bc cd98 903b 29b3 b5bc 35ac 93bc
00000220: f3f6 f8bc b7ca 83bc bc9c edbc b686 32bc
00000230: 0a8e 0ebc 1254 7a39 d71f f9bc 553c 4ebc
00000240: 81d6 31bb 3911 07bb 3e85 20bc 6750 e63c
00000250: 5a3a 92bb d932 13bb 41b5 303d f10e b73c
00000260: 2cdd afbc de99 cb3a 1836 a8b8 c34d af3d
00000270: 51e4 45bb b13b 56bc 4000 28bc 957a 6d3c
00000280: e3f1 983a 2e28 5a3c 776b 4cbd da7a b0bc
00000290: 175b 81ba 7bef c93a 5de8 38bc 7763 f5bc
000002a0: be3a 4aba 05e2 123d b365 133d 2501 5a3a
000002b0: 2f80 3fb9 4896 89ba fd70 d1bc e291 be3c
000002c0: a7a0 fd3b 3702 19bc 10ae 8f3b 8686 083a
000002d0: 22fe 273d d627 50bc a075 dbbc 2843 9ebc
000002e0: b477 b5ba 22bc 063d 5b1b 92bc 850b 04bb
000002f0: a9a5 583a df5c 8abc 7d45 743c 42e6 46bc
00000300: f8d4 1fbc 5838 15bc 55fd 2abb 892c 983c
00000310: 7cf5 093d 4aea 62bb 3093 fbb7 7b50 01bc
00000320: 9830 e8bb a9b6 28bc 38fd 0f3c c1c3 72bc
00000330: 3ea3 19bb 72e6 e5bc b31a bc3c 887b 32bc
00000340: f8e0 0f3c fd94 76ba 8dd3 e9ba 2f14 133d
00000350: d7a6 253d 54fe a2ba badc 04bd 4c5a 103d
00000360: b227 cd3a c321 b33a cefa 933c 10ce a03c
00000370: bd28 243d 7db4 e6bc cc7a 21bc a489 123c
00000380: e411 80bc cf18 5e3a 93ee 483d a0ea f2b7
00000390: c439 33bd 5e3a a73c 080a 303d 04d9 a2ba
000003a0: 08c4 8f3c 882c f0bc 60de 36bc ad8a 7b3c
000003b0: f536 bc3a a173 3cbb 9659 23bc 9b4f f3bb
000003c0: 1c13 ccba 8743 9dbc c2aa ad39 10e9 07bc
000003d0: 5058 a9bc c576 7bba 3103 3ebc 30a2 0ebb
000003e0: f730 a3bc 6de3 9bbb e9d9 053d 3956 5d3c
000003f0: f5cf 80bc bbab e1bb d933 93bc 7dce 96b7
-0.021764329 -0.0067107803 -0.005395587 0.004684757 -0.016690573 0.00049619755 0.00012334534 -0.00010122243
-0.015016215 -0.015585798 -0.0059249057 0.0062477123 0.00040418727 -0.0070123784 0.039603222 -0.0004962298
0.007487412 -0.021554444 -0.012446161 0.0066475323 -0.0014780358 0.001845968 0.016283713 -0.014742488
0.008113537 -0.010142537 -0.0105416095 -0.0013110368 0.005383214 -0.017511338 -0.008636788 0.004768989
-0.0006798223 -0.016157823 -0.028854966 -0.017124971 0.010794977 0.022680426 0.0025296365 -0.0290755
-0.016320478 -0.009910852 0.00026855286 -0.0202793 -0.0037851555 -0.01739174 -0.029206816 -0.00041182333
-0.0013451943 -0.011149434 -0.01409439 0.014930647 -0.028741969 0.000915769 -0.011507434 0.008846967
0.020940317 -0.004361389 -0.024340326 -0.017387798 -0.0013679838 -0.0051762653 -0.0063415845 0.0045954757
-0.010946658 0.0076097986 -0.014520897 -0.018879963 0.021446679 -0.020569773 -0.011171641 -0.008583702
-0.000277272 -0.011984795 -0.020205868 0.006764095 -0.0069399034 -0.028190317 -0.005473443 0.007813361
0.0020081396 -0.023076484 -0.01228168 -0.004859295 -0.012086005 0.0019449668 -0.01960567 -0.0036373183
-0.0075480933 -0.006085273 -0.01102329 -0.01205158 -0.019342419 -0.031466827 -0.00056576775 -0.018555166
-0.00010856909 -0.028479017 -0.015027454 -0.002500785 -0.019124066 -0.00041964272 -0.012230407 -0.01363231
0.0010141819 -0.040524848 -0.048065584 0.017926268 -0.019770425 -0.0015181007 0.0011567485 0.022037918
0.005210396 -0.022378637 0.03506307 0.003239911 -0.008529026 -0.00068477594 0.005107508 -0.021432007
-0.020897806 0.0396235 0.03244358 -0.015987653 -0.0033950992 -0.020897554 0.0015450692 -0.008438863
0.0017240788 0.003233579 -0.01915945 -0.012798978 -0.018343648 0.0044127465 -0.022180157 -0.01802645
-0.030391192 -0.016087873 -0.0290054 -0.010896375 -0.008700857 0.00023873177 -0.03041069 -0.012587626
-0.002713591 -0.002060963 -0.009797392 0.02811451 -0.0044625225 -0.0022460727 0.043141607 0.022345992
-0.021467768 0.0015533527 -8.02094e-05 0.08559754 -0.0030195902 -0.013075755 -0.010253966 0.014494558
0.0011668768 0.013315244 -0.049907174 -0.021542955 -0.0009869066 0.0015406454 -0.0112858685 -0.029954655
-0.0007714442 0.03586008 0.03598566 0.00083162106 -0.00018262932 -0.0010497058 -0.025566572 0.023262922
0.0077400985 -0.009338907 0.0043847635 0.0005208034 0.041013844 -0.01270481 -0.026789486 -0.019319132
-0.0013844878 0.03289426 -0.01783531 -0.0020148468 0.00082644314 -0.016889988 0.014909145 -0.012139859
-0.009755366 -0.009107672 -0.002609094 0.018575924 0.033681378 -0.003462451 -2.9990071e-05 -0.007892723
-0.007085871 -0.010297456 0.008788399 -0.014817179 -0.0023443247 -0.028063986 0.02296195 -0.01089371
0.008781664 -0.0009406356 -0.0017839536 0.03590792 0.040442314 -0.0012435415 -0.032437064 0.035242364
0.0015652089 0.0013666678 0.018063929 0.019629508 0.040077914 -0.028162235 -0.009855937 0.008943949
-0.01563353 0.00084723247 0.049055647 -2.8957904e-05 -0.04375626 0.020413574 0.042978317 -0.0012424295
0.01754953 -0.02931811 -0.011161417 0.015352887 0.001435964 -0.0028755444 -0.009970089 -0.007425261
-0.001556966 -0.019197239 0.00033124356 -0.0082953125 -0.020671993 -0.0009592588 -0.011597441 -0.0021764152
-0.01992081 -0.004757336 0.03267852 0.013509327 -0.015724162 -0.006886927 -0.017969059 -1.7977547e-05
